models/baselines/convolution_baseline/13_09/model_64_5_2_256_2.pt (torch, 407492 bytes, 7 tensors)

conv_layers.0.weight f4 [64, 20, 5]
00000000: c711 dbbd ee1c b33d 6b96 643d d10c ac3d
00000010: 5bac 0abd 45bb 343c f02b 053e c045 85bd
00000020: a61b 33bd fde4 733d ba9f 313d b408 9e3c
00000030: 1ce2 843d 1f77 2e3d 18b1 d63d 3914 673c
00000040: 316b 623c 11fc 493c 0240 b1bd 3e3c 7e3c
00000050: 0884 5cbc 4c86 ef3b 6935 adbb f4fa d2bd
00000060: 5926 fdbd eac8 04bc afcb e83d 63f1 183c
00000070: e611 b73b 9001 5e3d baa1 ac3d 38fc 9f3d
00000080: 4612 2cbd f318 273e e75b 04bd 515e 8dbd
00000090: 0046 11bd 770e cebd 7c89 be3c 5547 86bc
000000a0: a9d4 7ebd 2708 b0bd 3102 93bc 720d 193e
000000b0: 9f15 c33d 76db 87bc 46ff 8f3d 91ec ebbc
000000c0: 4b3b 43bd 9a86 acbd bb3a 27bd ce08 9abd
000000d0: fbc7 583d 80ef 86bd e042 793d 19ba 3f3c
000000e0: fa68 1b3e 8454 1c3d 8d43 2b3d c575 7ebd
000000f0: 4029 893d f173 44bd 230c 6b3d ce53 a73d
00000100: 639c 3b3d c3a2 bebb 8681 b63d f6cf f7bd
00000110: 08ff bc3c 0ef4 03be b936 8c3d ce0f 3dbd
00000120: 69ce 133c 55eb 69bd 74ea c53d 46eb 89bd
00000130: 77c0 90bc 3ecc 103e f510 bb3c e7f6 8c3d
00000140: baa6 60bd bd0b 26bd 9940 ea3d f25c ee3d
00000150: 0279 efbd ba38 2d3d 042a 2cbe 00ec 943d
00000160: 82c1 613d 0a92 5fbd eca1 0fbe a9bc 493b
00000170: 44ef e2bd e98b 69bc da63 79bd 9b42 733d
00000180: e1a7 bcbc f139 9c3b aa6c abbd 6145 fdbd
00000190: 9e05 40bd fa04 f0bb 1544 1bbd 71dd eb3c
000001a0: f47c 7f3d 6ad7 103e 2050 7e3d eab9 c13d
000001b0: 7aa2 643d 6883 48bc 1238 29bd 5293 d6bd
000001c0: c47a 1fbd 82bc ce3b bf29 243d 9e61 2bbb
000001d0: a82c 9abc ee6e 9dbd a40d 67bd 84c8 993c
000001e0: 12c5 a93d 477e 02bc 611b 19be 7654 bebd
000001f0: 5d72 0abe b04f fabd c0b9 8ebd 184f cbbd
00000200: bb05 4dbc 940e 3abb d3ee a23a 7c87 1abd
00000210: e066 47bc f9ae ed3c 6cff 543d 1539 18be
00000220: 2ad9 433c 5b2c 7dbc 0ea9 0f3d 7d8a 963a
00000230: 6520 6c3d 0694 af3d d9fb 2c3d 8f29 d33c
00000240: 9538 98bc 6229 b73d 901b 7cbc e33c c33c
00000250: a261 a0bc b4b3 66bd 69bb a43d ce9b c23c
00000260: e2ea c13c 7263 683d 92ac 1b3b ad83 5b3d
00000270: 50dd df3d 7528 283d 36ea 723d f817 09bd
00000280: 72b4 5dbc a9c2 68bd 2019 3b3d fd86 9c3d
00000290: ff04 85bc ffe2 97bd 09dc 663d e83e 22bc
000002a0: 1619 a2bd ea31 d2bd 7e26 23bc 2729 7e3d
000002b0: 8517 c23d b248 acbd adc1 d73c 49f5 393d
000002c0: 1d5a 353d 6ef4 89bc 970c 48bd 14de 1dbc
000002d0: 5940 f7bd 989c 8c3d c57e 993d e25f ac3d
000002e0: cf18 1d3c d222 a43d 8d89 003d dc1a 52bd
000002f0: 337c c4bd 3fcc 5cbd 9b88 ad3c 6bb4 90bc
00000300: cbed 41bc 2e7b 51bc 1eca a1bb 971d 0fb9
00000310: bbe2 80bb 5d55 113d cd32 e9bd b2ae 2bbe
00000320: 802f 033e 38ed b33c 878d b9bd 772d ecbd
00000330: e0e2 e03d b668 fdbb 6be7 f1bd 4e0a 083e
00000340: 8978 b73d eeff 343c 8340 c1bc b379 c2bb
00000350: 7fbc cdbd 37cf 993c 7767 13bd 6467 68bd
00000360: 1d78 29bb b15c b83d 8887 073e b84f 893d
00000370: a4cc b1bd f734 bd3d 0973 f23d eccd 98bd
00000380: e81c a8bd de50 f23d 7c71 09bc dafe f5bd
00000390: 5eed d53d 0cd2 b43c a195 30bd 2965 2bbb
000003a0: 1dfd 6a3d 75fd ac3d f5c7 023e c889 17be
000003b0: 740c eb3d b78f 3cbd 77fa 21be 1d4d 99bd
000003c0: 3074 ba3d 5e2e 95bd 0942 03bd 5704 683d
000003d0: 149e ec3d 65c8 ae3d 0afe 44bc 7a46 223d
000003e0: 2499 9f3d 2077 c9bd 0e0d be3d 6e9a bfbd
000003f0: a1c5 71bd fd1d d6bc c85e 86bd 793e a1bd
-0.1069675 0.08745752 0.055807512 0.08400882 -0.033855777 0.011030977 0.13005042 -0.065074444
-0.04372754 0.059544552 0.043365218 0.01929126 0.064884394 0.04259407 0.10482997 0.014103943
0.013819502 0.012328164 -0.08654787 0.015517293 -0.013459213 0.0073097106 -0.005285908 -0.10301772
-0.1236083 -0.008104542 0.113669746 0.009334895 0.0055868505 0.05420071 0.084292844 0.07811779
-0.042009614 0.16318111 -0.032314207 -0.06902755 -0.035467148 -0.10061353 0.023258917 -0.016391436
-0.062214527 -0.08595305 -0.01794538 0.14946535 0.09525608 -0.01658414 0.070311114 -0.028799327
-0.047663968 -0.08424111 -0.040827494 -0.075212106 0.05292509 -0.0658865 0.060854793 0.011702084
0.15176764 0.038166538 0.04181247 -0.062124033 0.06697321 -0.047962133 0.05738462 0.08170281
0.04580344 -0.0058177426 0.089114234 -0.12100212 0.023070827 -0.12886068 0.06846375 -0.04615765
0.00902138 -0.057109196 0.09663859 -0.06734328 -0.0176699 0.14140412 0.022835234 0.068830304
-0.054846503 -0.04053854 0.11438102 0.11638822 -0.11693002 0.042290427 -0.16812903 0.07271576
0.055116184 -0.054582633 -0.14026612 0.0030782616 -0.110807925 -0.014254549 -0.06088624 0.05938969
-0.02302927 0.0047676493 -0.083703354 -0.123667486 -0.046880357 -0.007324812 -0.037906725 0.028792115
0.062375024 0.14144674 0.062088132 0.094592884 0.055819012 -0.012238361 -0.04131324 -0.10477318
-0.038935438 0.006309093 0.040078875 -0.0026150714 -0.018820122 -0.07687174 -0.056409493 0.018772371
0.08289541 -0.007964677 -0.1495185 -0.092934534 -0.13520189 -0.122222304 -0.06969023 -0.09927195
-0.012513573 -0.0028390037 0.0012430794 -0.037726864 -0.012170523 0.029014098 0.0520014 -0.14865525
0.011953631 -0.01545247 0.035073332 0.0011485365 0.05764808 0.08573155 0.04223237 0.025776653
-0.018581668 0.0894344 -0.015387431 0.023832744 -0.019577805 -0.056323722 0.08043558 0.023755934
0.023671571 0.056735463 0.0023753983 0.053592373 0.10930884 0.041054208 0.059305392 -0.033470124
-0.013531791 -0.056826267 0.045678258 0.076429345 -0.016237734 -0.07416343 0.056362186 -0.009902693
-0.07914941 -0.102634266 -0.009957908 0.062050965 0.09477142 -0.08412303 0.026337469 0.045399938
0.04427539 -0.016840186 -0.04884013 -0.009635467 -0.1207282 0.068658054 0.074948825 0.08416726
0.009588434 0.08014454 0.03138118 -0.051295146 -0.095940016 -0.05390572 0.021183303 -0.017664155
-0.011836479 -0.012785716 -0.0049374243 -0.00013648566 -0.0039332784 0.0354818 -0.113866426 -0.1676586
0.12811089 0.0219637 -0.09060197 -0.11532109 0.10980773 -0.00773343 -0.118117176 0.13285181
0.08958537 0.0110473465 -0.023590332 -0.005934918 -0.100457184 0.018775566 -0.035987344 -0.056739226
-0.0025858947 0.090020545 0.13235295 0.06704658 -0.0868161 0.09238618 0.118383475 -0.074611515
-0.082086384 0.118318304 -0.008388873 -0.120115 0.10445665 0.022072814 -0.043111447 -0.0026152825
0.057370294 0.084467806 0.1277159 -0.14798653 0.114769846 -0.046035495 -0.15818201 -0.07485411
0.09104192 -0.072842345 -0.032045398 0.056644764 0.115535885 0.08534316 -0.012023458 0.039617993
0.07792881 -0.098371744 0.09279834 -0.09355627 -0.059026364 -0.026137346 -0.06561047 -0.07873244

conv_layers.0.bias f4 [64]
00000000: d056 f73c 4a75 3d3d ed16 5a3d c561 213d
00000010: b09f 3b3d 3d32 33bd cef9 bd3d baba 42bd
00000020: d48e 30bd b0a5 223d c1f7 85bd fac5 503c
00000030: 4938 3f3d d955 f03b e540 2d3d f3c3 2b3d
00000040: 097a 933d d4c0 b43d 7035 a9bd 8922 b6bc
00000050: 3497 6b3c b7b4 6bbd ca4b 6ebd 60b4 1b3d
00000060: ed59 25bd ec7a 003c 8a7b a63d 882e 413c
00000070: d593 69bc 1fe6 933c c2f3 cabc b6a1 8bbd
00000080: fc93 573d 2d77 693c e5ff 813d 1de0 70bc
00000090: d542 f6bb 3c4a e63b 20dc ea3b f066 133d
000000a0: bde2 e63b c534 773d 3bb2 86bd 13f0 a1bd
000000b0: bb64 85bd f99d 313d e6d5 1bbd 2236 843d
000000c0: 8e12 cbbc 6148 883c 3312 0dbd c7c7 ac3d
000000d0: 7600 023c e7e6 143d 7302 24bd 209f 3fbd
000000e0: 18c5 e73b 64b8 bbbc 8f3c 973d 23d9 963d
000000f0: c532 8d3d 10b3 76bd 57a0 073d fabd 8bbd
0.030192763 0.046254434 0.05324452 0.03939988 0.045806587 -0.043749083 0.09276162 -0.047541358
-0.04310496 0.039708793 -0.06541396 0.012742514 0.046684537 0.0073344526 0.042298216 0.04193492
0.07201011 0.088258415 -0.082621455 -0.022233265 0.014379311 -0.05754539 -0.058177747 0.038013816
-0.040368963 0.007841807 0.08129032 0.011790879 -0.014256437 0.018054066 -0.024774436 -0.06817953
0.052631363 0.014249605 0.06347636 -0.01470187 -0.007515291 0.0070278924 0.007167354 0.03598684
0.0070460723 0.06035306 -0.065769635 -0.07907119 -0.065133534 0.043363545 -0.038045786 0.064556375
-0.024789121 0.016636075 -0.034441184 0.08436542 0.00793468 0.036353018 -0.0400414 -0.046782613
0.007073056 -0.022915073 0.073845975 0.07365634 0.06894449 -0.06022936 0.033111896 -0.068233445

conv_layers.3.weight f4 [64, 64, 5]
00000000: 531b 17bd 4469 4cbd ec75 273d 1ca3 b43d
00000010: 322f 32bc 7813 10bd be75 983d 9503 4e3d
00000020: 0a51 3d3d af82 9e3c 4123 0fbd 976f 1bbd
00000030: 26d3 c1ba 6fb7 94bd 6889 023c 3894 543d
00000040: 448b 7c3c 8006 1dbd ee5b 0cbd 9fb1 d73b
00000050: dcd9 92bc a5da 873d 5591 39bd 2622 bfbc
00000060: d91e 133d 5a9c de3c f62f de3d 8187 f33d
00000070: 098e d93d 5a26 813d d087 323d c688 81bc
00000080: adbe 01bb 81ac 66bc 55b7 79bd c4dd abbb
00000090: 1552 8bbc 126c f1bc 81f9 acbd a6d8 bebd
000000a0: 2171 9e3d b6a4 dfbc 4fdf 903d 8c14 b13d
000000b0: 2e52 463c 8dc5 47bd a4b9 3d3d 0bab 38bd
000000c0: 33d3 79bd 0dba 33bd 53c0 963d baf3 8b3d
000000d0: 7283 513d 0ff4 b0bc 74e2 d23d b7a5 b23c
000000e0: e71e a03b 189f c93c 398b 7c3d 460f eb3c
000000f0: 325a 8d3d 28ec 7f3c 34f7 dd3c 2f32 8b3d
00000100: f5f3 fe3c cb0a d13d 6667 ed3d ba38 0b3c
00000110: 7762 153d 7a32 b83d 102e 923d f339 9d3d
00000120: 7ede 72bc 6013 27bd 8c6d 59bc a627 003d
00000130: 3124 5a3d 4911 90bc ac17 013b cf00 383d
00000140: 4caa 09ba 43f4 92bd ae3a 3a3c 1102 8fbd
00000150: d579 0a3d b946 0d3d be24 fcbc 53ee a73c
00000160: 48fd 1dbd a30c 4b3d 44da a83d b6ee b63d
00000170: c2ba 773c 800a 11bd e6cd 50ba f51f 023c
00000180: 4637 6b3d c51e 493d e457 933d a1ec 09bb
00000190: 5130 3c3c 2d3a b33d 73b8 9bbc efb5 aa3d
000001a0: 07c6 493d 372a cc3c 76cd b53d 3cb0 e93d
000001b0: ac43 4e3d 1e83 a63d adfb 233b dd12 f83d
000001c0: 9a03 713c b8e9 a63c 5956 113d 2848 0cbc
000001d0: 8ea0 543c 6b2e c83d e009 753d 5388 c53d
000001e0: ea8b 85bd c1e0 55bd 111c d9bd 6167 c1bd
000001f0: 5644 c4bc 3505 ea3d 3ef5 323d 5b6a 363d
00000200: 10d5 a13c fdb0 953d 6ddb 273d 35ac 3fbd
00000210: c4c0 15bd 9d3d 7ebc 3614 d8bc 4e24 d4bc
00000220: 287a 443d 612c ab3c 591f 963c b60f de3d
00000230: 00dc a2bd 3f16 37bd cd28 b2bd 560b 6dbd
00000240: 62a4 57bc 28ab 853d b501 a9bc 29f4 833c
00000250: aa77 09bb bd89 d43b 2b43 70bd a449 b0bc
00000260: 77c6 96bd 1997 00bc 603b d0bc 6eb7 553d
00000270: 5072 843d 74dd 8dbc 4cff 24bd 11e3 d93c
00000280: 6c12 ae3d 9054 c83a 4388 603d ad44 093c
00000290: 0f1b dd3b 4584 953d 3334 de3b b3cb 893d
000002a0: 61c6 303d ebd0 0a3d 518e a83d 972f d33c
000002b0: bfcf 30bd 1da8 553d f632 893b da0d e9ba
000002c0: fb17 87bc 0874 f53c 493d ad3d 92ff 0d3d
000002d0: cf0b 053d 6e2d 96bc 28b1 a13d 00f2 103d
000002e0: 489c 6c3d 60b9 bd3c 80a9 6d3c 1c69 11bc
000002f0: eb21 ccbb 1293 c43a 3f20 103d 743a cd3c
00000300: 407e bdbb 94e2 ef3b bc35 1e3d 49c7 aa3c
00000310: 8d93 b1bc 6df5 433d 1569 4cbc 0920 2ebd
00000320: b56e 903d c0f8 893d bc51 9a3d f6fc 0e3c
00000330: 70e8 10bd 32e2 523d 4e0f 9b3c 4df0 d9bc
00000340: dd62 d63c e6ea 883c 0c4e c13d 75f0 a53d
00000350: 0ad9 c7bc 10b4 40bc 1075 673d 0fcf 3fbb
00000360: 0f36 4e3d 58e8 15bc dcb1 e9bb 1295 9d3d
00000370: 312c 343d ac07 ec3c 01ef db3d c84f a63d
00000380: 00a6 f73c 937d ba3d 5726 ac3c 13d2 7fbc
00000390: 352e e83c 66c8 893c 5f02 4a3d 2b04 873d
000003a0: 81db 883d 6082 363d 2d6e 8d3d 878b 1abb
000003b0: 2217 a3bc deed 0cbb d914 163d e401 dfbc
000003c0: 49a0 6f3d 8416 a83d e469 283d 3063 7a3c
000003d0: e7f8 8b3d 5b7c 7c3c 259f 9e3c efa5 c23c
000003e0: e0b4 d53c 39fa debb 739e cf3b a282 fd39
000003f0: fd6d 8b39 708c 813d 193c 493d ef4c 5b3b
-0.036891293 -0.049905077 0.040883943 0.08820173 -0.01087551 -0.035174817 0.074443325 0.050296385
0.046219863 0.019349424 -0.03494573 -0.037948217 -0.0014787659 -0.0726155 0.0079673305 0.051899165
0.015414063 -0.038336277 -0.03426736 0.0065824534 -0.01792615 0.066335 -0.045304615 -0.023331713
0.03591809 0.027174164 0.108489916 0.1189108 0.10622794 0.06306143 0.043586552 -0.015812289
-0.001979749 -0.014079214 -0.060965855 -0.0052449424 -0.017006913 -0.029470477 -0.084460266 -0.09318666
0.077364214 -0.02730022 0.07073843 0.08646497 0.012104554 -0.048772383 0.04631962 -0.045084994
-0.06099243 -0.043878604 0.07360902 0.068335965 0.051150747 -0.021600751 0.10297099 0.021807535
0.0048864963 0.024611995 0.06165621 0.028693806 0.06901969 0.015620269 0.027095415 0.06796681
0.031122187 0.10207137 0.11591987 0.008497411 0.036470857 0.08994003 0.07137692 0.076770686
-0.014823554 -0.04078996 -0.013270747 0.03128781 0.05325717 -0.017586367 0.0019697947 0.044922646
-0.00052515115 -0.071754955 0.011366529 -0.06982816 0.033807594 0.034491275 -0.030779239 0.020499384
-0.038571626 0.0495726 0.08244756 0.08932249 0.01512021 -0.035410404 -0.00079652516 0.007942189
0.05742576 0.04910161 0.07194498 -0.0021045583 0.011486129 0.087513305 -0.01900885 0.08335482
0.04926112 0.024922473 0.08877079 0.11410567 0.050357506 0.08130477 0.0025021837 0.12112973
0.014710331 0.020375118 0.03548274 -0.008562125 0.012977732 0.097744785 0.05982387 0.096451424
-0.06520827 -0.052216295 -0.10601056 -0.09443546 -0.023958366 0.114267744 0.043690912 0.044535022
0.019754916 0.073091485 0.040980745 -0.04679509 -0.03656079 -0.015517619 -0.026376825 -0.025896218
0.04796806 0.020895185 0.018325495 0.108428404 -0.07952118 -0.04469895 -0.086991884 -0.05787214
-0.0131617505 0.06526786 -0.020630697 0.016107636 -0.0020975866 0.0064861462 -0.058657806 -0.02151949
-0.07362073 -0.0078485245 -0.025418937 0.052176885 0.06467116 -0.017317511 -0.040282533 0.026597532
0.084996074 0.0015283991 0.05481745 0.00837819 0.0067476104 0.07300619 0.006781125 0.06728306
0.04315794 0.033890646 0.0823027 0.025779529 -0.043166872 0.05216228 0.004186983 -0.0017780617
-0.016490927 0.029962555 0.08458955 0.03466756 0.032481965 -0.01833221 0.07895118 0.03538704
0.05776623 0.023159683 0.014505744 -0.008875158 -0.0062296293 0.0014997444 0.035187002 0.025052287
-0.0057828724 0.0073207114 0.038625464 0.02084698 -0.021676803 0.04784148 -0.012476225 -0.04251102
0.07052366 0.067368984 0.07535121 0.008727303 -0.03537792 0.051485248 0.018928196 -0.026603842
0.026170189 0.01671357 0.094387144 0.08102504 -0.024395484 -0.01176168 0.056508124 -0.0029267704
0.050344523 -0.009149633 -0.007131798 0.076944485 0.043987457 0.028812252 0.10738946 0.08120686
0.030230522 0.09105983 0.021014376 -0.01561405 0.028342346 0.01681919 0.049318668 0.06592592
0.06682492 0.04455793 0.0690578 -0.00235817 -0.019908492 -0.0021504085 0.036640976 -0.027222581
0.05850247 0.082074195 0.04111661 0.015282437 0.06834584 0.015410508 0.019362995 0.023760764
0.026087224 -0.006804731 0.0063360273 0.0004835325 0.00026594094 0.063256145 0.04912958 0.0033462604

conv_layers.3.bias f4 [64]
00000000: e0e6 8f3c 9be2 1d3c 249c 9c3d f57e 663d
00000010: cb6a b8bc 1150 3f3d 1154 02bb cc4d a53d
00000020: 5c20 953d ff9f c8bc 0e24 933d e7a7 003d
00000030: a762 323d 315b 5a3c 2924 82bc 9676 263d
00000040: 1a8f 14bb 76a3 5bbd 6eac b2bc 7f0f 3cbd
00000050: ab51 12bd 115c 893d 5543 7e3d 1a28 e23c
00000060: d11d 543d b0ab 9c3d f31b 8f3d 3cc6 78bd
00000070: aa74 423d 05ed 90bc 0af4 153d 96b1 2a3d
00000080: 709e 15bb 489d 9ebc f8fc 8ebc f5c1 313c
00000090: 9745 993d d7c4 13b8 4816 61bb 04eb 0c3d
000000a0: 2114 0ebd 6c78 1ebd f8dd 863d 30fe 963d
000000b0: 0b72 30bc 22cd 36bd 8594 3ebd 73e8 78bc
000000c0: 3fd7 b4bc 1ee2 763d 4a6f 37bd bb71 25bd
000000d0: 94f9 0ebd 8403 f2bc d609 c7bc 3e36 1d3d
000000e0: ed86 51bd 762b 29bb fa02 2fbd cc06 19bd
000000f0: 8803 55bd f0d3 25bc dce2 0ebd 4de6 dbbc
0.017566144 0.0096365465 0.07646969 0.05627342 -0.02251186 0.046707217 -0.0019886533 0.08071479
0.07281563 -0.024490355 0.07184611 0.031410124 0.043551113 0.013327406 -0.015886383 0.040640436
-0.0022668303 -0.053622685 -0.021810737 -0.045913216 -0.035722416 0.067070134 0.06207593 0.027607013
0.051786248 0.07649934 0.06987753 -0.060735926 0.04747454 -0.017691145 0.036609687 0.041673265
-0.0022830032 -0.019362107 -0.01745461 0.010849466 0.07483976 -3.5230853e-05 -0.0034345556 0.034403816
-0.034687165 -0.038689062 0.06585306 0.07372701 -0.010769377 -0.044629224 -0.046528358 -0.015192139
-0.022075294 0.060274236 -0.044783868 -0.040391665 -0.034905985 -0.029542692 -0.024296682 0.038381808
-0.051154066 -0.0025813258 -0.042727448 -0.037359998 -0.05200532 -0.010121331 -0.03488432 -0.026843214

fc1.weight f4 [128, 576]
00000000: caff d8bd 39a6 cebc 850f 8f3c eb55 3abc
00000010: 8c35 aebc 25ba 20bd 99a4 443d cfdf 1f3d
00000020: 18a2 503d 0788 adbd 339e 94bd 2f59 c2bd
00000030: 7d27 e73a 8a17 59bd 3a7d ebbc c32d 413d
00000040: 4ea3 193d ff64 66bb 9d2d 25bd 9aa2 163d
00000050: 6867 653d 762f 23bc 3fb6 b2bc b288 2f3d
00000060: 7c38 3d3d 6051 213d dc51 56bc 383a 853d
00000070: 3414 e13c dcc3 7a3b 2763 443d 36e4 5c3d
00000080: a013 8b3d 3dbd 223d 9b29 4a3d 2e55 513d
00000090: 3208 17bd 4307 b33c 3536 a8bb 4ab8 a43b
000000a0: 2a68 8ebc 2cd2 4bbc f964 483c b111 74bc
000000b0: 55d0 2cba 551c 633d f75a 8b3c 700d b23d
000000c0: e129 353d 3525 933d 3e7e 633c e547 1b3d
000000d0: 59eb 5d3c 1ab0 213d aef5 cabd 2d4d fc3c
000000e0: 7b13 d63c c476 6cbd 0113 0d3c 357e a43c
000000f0: aedc 223d 2346 a5bc 0b33 513c afdf 223c
00000100: 7a69 543d 5af3 0f3d 2236 883d 6bc2 eabb
00000110: 0c35 423d 2993 213c 2115 353d e88b 04bc
00000120: 9ec0 e33c 0c41 603d ffa7 073c 0a56 973d
00000130: 08c1 ab3d e534 713d 5c8d 8a3d 0798 203b
00000140: d583 7a3d 8f99 b6bc 6185 a7b9 3d20 003d
00000150: 604d ee3b 3ee0 0b3d 83e6 dd3c 48bc 20bd
00000160: 68e5 d33c 564a e83a 4afb adbc 36e1 1e3d
00000170: ddd9 f03b 619f 273d d94c 99bc a9dd 5eb9
00000180: b836 8b3c bf3d 7b3d 02dd e0bb 9833 153d
00000190: e40f 7f3d ef2a c0b8 9f2b b63d c3a8 a73d
000001a0: 2ca2 373d 0561 de3c 24b3 823d 1e8e 08bc
000001b0: 61eb 08bd c67b 6bbc effa cebc aa96 8fbc
000001c0: 85b2 36bc da6f ffbc 34e8 a3bb 1ab3 96bc
000001d0: 4fb8 6c3d 316f 2abd 689f 52bc 5d41 8e3c
000001e0: a537 003b 52d6 023c 00fc 06bc 5f74 bb3c
000001f0: 4487 0e3d e77a 613d f2a6 06bd 3dbe 37bc
00000200: 460b 753c d2b1 253d 7f49 ddbc 3482 08bd
00000210: 0f54 4f3d 8104 673d 9818 8b3c 8748 cc3d
00000220: 06c8 71bd 7027 36bd a2ab 423d e38c f53c
00000230: 16cf 553b 2c61 203d e33a 503c cd90 513c
00000240: 28ce 21bd 17f8 28bd b011 da3c 087f 24bb
00000250: 8940 623c 1c2b c6bc b74d 5a3d a2bf 683d
00000260: d3b4 b93b ff5b 103d 2eca 02bc fe7a 43bd
00000270: 1c6a abbb 9007 3a3c 0304 9fbc 2b05 beba
00000280: 71b6 903b 9615 0cbb d1f8 03bd 9082 47bd
00000290: 2f57 acbc 31db 2bbc 1a74 ab3c 4a2a 93bc
000002a0: 913d bb3c 32ad 2c39 263d 4d3d 928a acbd
000002b0: 0ca3 7fbd cbc6 8bbc 3b85 803c 79ac e3bb
000002c0: d92c 613c 6ec2 093d a386 413c 20c3 15bc
000002d0: f8ee 0cbd 60a1 16bd a68e 4abc f97a d0bc
000002e0: 1294 b73c 35db bc3c a7da babb 3ed2 103c
000002f0: 986b c93c a4ae 933d 1e7e d33c a98c 283d
00000300: 5d74 823d 2bc9 a93d 42f0 093d fd10 f33c
00000310: e853 cc3c 166a 783d 263b 243d 927b 033b
00000320: 62ad 873d 4432 e33c 08f7 883d f348 d53b
00000330: 54df 7e3d c3a9 ecb9 41ae 493d 5e86 c73d
00000340: e8fa a83d 8d0b ee3c b663 4c3d 59ea 7f3d
00000350: 9533 b33c 7038 f1bb bb58 50bb c589 843d
00000360: 2820 713d 3b14 943c a775 943d 2446 5b3c
00000370: 6cdc 123c d54d aa3c c475 453b 2eb2 093d
00000380: cc27 8abb 5a9e b13d 7489 773c 07dd 9cbb
00000390: fe25 003d d817 803d e0ff a93c 7852 723d
000003a0: b0fd 113d e426 7f3d 045b da3d df21 643d
000003b0: 3e3f b73c 817a 593d 1e3f 01ba 5a02 ae3c
000003c0: 6460 313d d836 593d cfb2 1d3c 2d5b 64ba
000003d0: f323 07bc 3893 af3c edc1 a23c f54d 3e3c
000003e0: cae5 353d 544c 94bc e240 f6bc dfea a2bb
000003f0: d2be 7dbb 3993 c8bc 5dd3 2c3d 2937 f1bc
-0.10595663 -0.025225746 0.017463455 -0.0113730235 -0.021265768 -0.03924002 0.048008535 0.0390318
0.050935835 -0.08473211 -0.072567366 -0.09489667 0.001763567 -0.053000964 -0.028746236 0.047162782
0.037509255 -0.0035155413 -0.040326703 0.036776163 0.05600682 -0.009960046 -0.021815417 0.042854972
0.046196446 0.039384246 -0.01308104 0.06505245 0.027475454 0.0038263714 0.04794612 0.053928576
0.067908525 0.039731253 0.049356084 0.051106624 -0.03687305 0.021854049 -0.005133415 0.005026852
-0.017383654 -0.012440246 0.012231105 -0.014896796 -0.0006592323 0.05544694 0.017011149 0.08693969
0.044229392 0.07184831 0.013885079 0.03791036 0.013544881 0.039474584 -0.09910141 0.030798519
0.026132336 -0.05773045 0.008610488 0.020079711 0.039761238 -0.020175045 0.012768517 0.009941026
0.051858403 0.035144188 0.0665095 -0.0071642897 0.04741387 0.009861746 0.044209603 -0.008089997
0.027801808 0.054749534 0.0082797995 0.073894575 0.08386427 0.058888335 0.067652434 0.0024504678
0.06116088 -0.02229002 -0.00031952097 0.031280745 0.0072724074 0.0341494 0.027087456 -0.03924206
0.025866225 0.0017722349 -0.021237988 0.038788997 0.00735019 0.04092348 -0.018713402 -0.00021254145
0.016993865 0.061338183 -0.0068622837 0.036426157 0.062271014 -9.1632704e-05 0.08895039 0.081864856
0.044832394 0.027145872 0.063818246 -0.008334665 -0.0334276 -0.014372772 -0.025266139 -0.017527897
-0.011150961 -0.031181265 -0.005002046 -0.01839595 0.057792958 -0.041609947 -0.012855388 0.017365152
0.0019564417 0.007985668 -0.008238792 0.022882638 0.034796968 0.05504885 -0.032874055 -0.01121479
0.014956301 0.040452786 -0.027012585 -0.033327296 0.050617274 0.05640078 0.0169795 0.09974771
-0.059028648 -0.044471204 0.047526963 0.029974407 0.0032624654 0.03915517 0.012709352 0.012790871
-0.039503247 -0.041252222 0.026619762 -0.002510013 0.013809332 -0.024190478 0.05329677 0.05682338
0.005667308 0.035243984 -0.007982774 -0.047724716 -0.005231155 0.011354342 -0.019411093 -0.001449739
0.00441628 -0.002137517 -0.03221971 -0.0487085 -0.021037666 -0.010489271 0.020929385 -0.017964501
0.022856506 0.00016467719 0.050107144 -0.08424868 -0.062411353 -0.017062565 0.01568853 -0.0069480506
0.013743603 0.03363269 0.011811885 -0.00914076 -0.034407586 -0.036774993 -0.012363112 -0.025449263
0.022409473 0.023053745 -0.005702335 0.008839188 0.024587438 0.072110444 0.025816973 0.04114977
0.06369851 0.08290323 0.033676393 0.029671187 0.024942353 0.060648046 0.04009547 0.0020062667
0.06624867 0.02773393 0.066877425 0.0065089404 0.0622247 -0.0004513991 0.049238447 0.097424254
0.082509816 0.029058242 0.04989978 0.06247935 0.021875182 -0.007361464 -0.0031791169 0.0647159
0.058868557 0.018076053 0.07249003 0.013383422 0.0089636855 0.020789066 0.0030130008 0.03361719
-0.00421617 0.08672781 0.015108455 -0.0047870907 0.031286232 0.06254548 0.020751894 0.05916068
0.035642326 0.06229295 0.10661891 0.055696364 0.022369023 0.053095344 -0.00049303647 0.021241356
0.043304816 0.05303082 0.009625151 -0.0008711096 -0.008248317 0.021432504 0.019867862 0.011615266
0.044408597 -0.018102802 -0.030060235 -0.0049718465 -0.0038718474 -0.024484264 0.04219376 -0.029445248

fc1.bias f4 [128]
00000000: d339 5e3d 97a3 0a3c eaa0 853c 26c8 443d
00000010: 76b7 11bd e837 5bb9 ee79 01bd 1be0 12bd
00000020: 88a9 26bd 4e24 cc3c e8a6 19bd 760d 6cbc
00000030: e33c 243d 89b5 17bd 8e24 823d ce58 cebc
00000040: b3e4 f4bc 38e4 09bd 9ae0 b0bc 764a ae3c
00000050: d939 123d bda1 c93c 594e 983c e997 7f3b
00000060: f217 f03c ff2e 9c3c a92a 703d a6cd 06bd
00000070: 701a b83b 8a8f 443b 7c04 adbc bc09 033d
00000080: f139 b6bc f4ff e839 9291 ea3c 90c1 e83b
00000090: dc64 41bc 166f 453b 9fa0 b8bc e261 a7bc
000000a0: a60f 9ebc 5665 4eb9 c794 db3c 9273 22bd
000000b0: fc85 373a dd99 bb3c 48c7 30bd 433b 383d
000000c0: 1f29 0f3d dfb9 45bb b6d5 f2bc 6e8c 3fbd
000000d0: 4760 683c b72c 12bd 0330 6a3d c51a 7a3d
000000e0: 7713 c03c 0ab1 3d3d a7c9 a1bc 7cd3 ec3b
000000f0: f81e c03c 1d6f c93c 7889 0d3d 74e9 373d
00000100: ceb1 0d3d 695e 76bc 571f 4abc 3b05 0c3d
00000110: c095 c8bc 81d4 0d3d 26d9 ce3c 1d95 f53b
00000120: 40f4 243c f058 723c 849e 1e3d eea2 05bd
00000130: dec8 033d ef52 d6bc d2c7 11bd 2688 c33c
00000140: c89e 133d 7156 8e3d e42e d2bc 19b6 803d
00000150: 053a 73bc e7be b8bc ad6f 0ebd 21a2 74bc
00000160: 80b1 733d 9889 c1bb 2f7c 1fbd ff7a 463c
00000170: 7b8e 933c 03df 913c a32b dbbc 63d0 06bb
00000180: 56d1 f73a df96 8bbc 1bdb 86bc be3b 0dbd
00000190: 0242 d8ba b56a 833b 1c10 2bbc 98ef b33c
000001a0: 6d4f a0ba 9876 283d cd68 f53c 3603 b5bc
000001b0: 4b94 703c d2a0 41bd 6532 37bd e4e6 30bd
000001c0: 296e a03b 458f 35bb 9ea7 47bc fe5c 063d
000001d0: f60f 68ba c1d1 e9bc 11e1 dbbc 7c8a 1fbd
000001e0: 9eb8 133d 0cd5 f4bc 7202 eb3c 0c24 e03c
000001f0: 5c60 48bb debe 3fbd 4092 8ebb 01b9 8b3c
0.054254364 0.008461854 0.016312081 0.04804244 -0.035575353 -0.00020906294 -0.03161042 -0.035858255
-0.04068902 0.024919655 -0.03751269 -0.014407506 0.04009713 -0.03703836 0.063546285 -0.02518883
-0.029894209 -0.033664912 -0.021591473 0.02127574 0.0356997 0.024613256 0.018592047 0.0039000458
0.029308293 0.019065378 0.058634434 -0.032910965 0.005618386 0.0029992783 -0.021120302 0.031991705
-0.022244425 0.00044441188 0.028633866 0.0071031526 -0.011803832 0.0030126027 -0.022537528 -0.020432416
-0.019294571 -0.00019683441 0.026804341 -0.039660998 0.0007000861 0.022900516 -0.0431588 0.04497839
0.034951326 -0.0030170602 -0.029642921 -0.046764784 0.014183111 -0.035687175 0.057174694 0.061060686
0.023446782 0.046311416 -0.019749476 0.0072273593 0.023452267 0.024589116 0.03455493 0.044900373
0.034593396 -0.015037158 -0.012336574 0.034184676 -0.024485469 0.034626488 0.025250029 0.0074945823
0.010067999 0.014791712 0.03872539 -0.032626085 0.032173984 -0.026162593 -0.035590954 0.023868632
0.036040097 0.06950081 -0.025657125 0.06284732 -0.014845376 -0.022551967 -0.03477447 -0.014931233
0.05949545 -0.005906295 -0.03893679 0.0121142855 0.018012276 0.017806536 -0.026754206 -0.0020570986
0.0018906991 -0.017039714 -0.0164619 -0.034480803 -0.0016499164 0.004010523 -0.0104408525 0.021964833
-0.0012230702 0.041128725 0.0299572 -0.022096258 0.014683793 -0.04727251 -0.044725794 -0.043188944
0.0048959446 -0.0027703803 -0.012185959 0.032803528 -0.0008852476 -0.028542401 -0.026840718 -0.03895043
0.036064737 -0.029886745 0.02868769 0.027360938 -0.0030575013 -0.046812885 -0.0043509305 0.01705599

fc2.weight f4 [1, 128]
00000000: 12d7 d3bd cc24 c53c 9dc5 c3bd 03a3 71bd
00000010: f381 b9bd 1aa6 9cbd 820b 893d b58b c43d
00000020: 6323 673d 5bdf dfbd d67a f93d 6f09 6c3d
00000030: bef8 cbbd 9aa0 91bd c1af c8bd f8c6 cf3c
00000040: 48b5 33bb e564 5b3d 3edd c3bc 33fb 90bd
00000050: 3aa2 d2bd 5e00 efbd c47b bdbd adb1 6cbd
00000060: eeb4 893d 07bf 89bd 3aab 8fbd 7d16 d83c
00000070: 8211 9f3d 9d18 fb3d f78f 81bc 0d0b ed3d
00000080: fd43 9cbd 9ac0 893d 06d1 c5bb 5286 083e
00000090: ccd1 5bbd b560 b0bd 5fd8 7c3d ea1a 8b3d
000000a0: ee9c f93d 7d0b b13c d19b 8e3d 749f ce3c
000000b0: 5b5d 843c 2488 0a3e 24e4 893d 6cfd 8fbd
000000c0: 7018 abbd e176 8ebd cf3f 063e e944 853d
000000d0: aec4 de3d 8f83 fa3d 5e68 7ebd a9b0 00be
000000e0: 06a2 86bd 76f9 31bd c67a f73d eeaa 98bd
000000f0: c747 033e 27a8 ddbd 355b 063e f043 a8bd
00000100: 6d04 d5bd a917 b53d 9c53 8cbb 5a91 053e
00000110: 79d6 8bbc e558 92bd ef47 743d d2e4 103e
00000120: 4b4f c83d 7d0c ef3d 4c76 cbbd f163 e6bc
00000130: 3a68 bb3d 20c1 09bc e994 40bd ca3b 813d
00000140: e31c b7bd 5858 90bd 8c65 f23d 24c5 84bd
00000150: 5afe 66bd 91cf c63d d8f5 083e 1c8e 8d3d
00000160: a870 05be 2009 ed3d ce6b 85bd b46e 64bd
00000170: d98d ffbd 0a3e d03d 8e30 b9bd 2ded a93d
00000180: 4c3a f73a d477 cdbc 62fb a93d dd83 f33a
00000190: 1873 1b3e dc94 9f3d fb2e e53d 358c a4bd
000001a0: 947e 25bd ac3a 62bd 5b47 a9bd 6a2e b2bd
000001b0: 60a0 b83d 027b 923d b111 c5bb 1f5b d73c
000001c0: f6a7 003e 8812 bb3d 6a6f c33d 673d bd3d
000001d0: dd21 81bd cc1e c63d 1f04 f73d 2ff6 083d
000001e0: 1819 0cbe f7b4 ad3d 209c a9bd 0a1e 83bd
000001f0: 0f61 ea3d 84ab 813d aa16 d03d 759a 01be
-0.10343756 0.024065398 -0.09559176 -0.05899335 -0.09057989 -0.07648869 0.06691648 0.095969595
0.05643023 -0.109312735 0.12181632 0.057626184 -0.09959553 -0.071107104 -0.097991474 0.02536343
-0.0027421284 0.053563017 -0.023909207 -0.070791624 -0.102848485 -0.11669992 -0.09252122 -0.057786632
0.06723963 -0.06725889 -0.07015081 0.02637791 0.07767011 0.12260554 -0.015815718 0.115743734
-0.07630155 0.06726189 -0.0060368804 0.13332489 -0.053666875 -0.086121954 0.061729785 0.06792243
0.12188135 0.021611923 0.06963313 0.025222518 0.016157797 0.13528496 0.067329675 -0.07030758
-0.083542705 -0.06956268 0.13110279 0.06507284 0.108773574 0.12232124 -0.06211125 -0.1256739
-0.06573872 -0.043450795 0.12083964 -0.07454477 0.1282035 -0.10823088 0.1312073 -0.08216083
-0.10401235 0.088424034 -0.004282428 0.13043728 -0.017070042 -0.071458615 0.059638914 0.14149788
0.09780749 0.11672304 -0.09934673 -0.028123828 0.09150739 -0.008407861 -0.04701701 0.06310232
-0.089410566 -0.070481 0.11835775 -0.06482914 -0.056394912 0.09707559 0.13375032 0.06911871
-0.13031256 0.11574006 -0.06514703 -0.055769637 -0.12478227 0.10168083 -0.09042464 0.08297191
0.0018861978 -0.025081553 0.082999006 0.0018578727 0.15180624 0.077920645 0.111906014 -0.08034555
-0.040403917 -0.055231735 -0.08265563 -0.08700259 0.09014964 0.07152368 -0.006014072 0.026288567
0.12564072 0.09134394 0.09542735 0.09240227 -0.06305287 0.09673843 0.12061333 0.033437904
-0.13681448 0.08481782 -0.082817316 -0.06402214 0.11444294 0.06331542 0.10160573 -0.12656577
