models/baselines/convolution_baseline/13_09/model_64_5_2_256_4.pt (torch, 407492 bytes, 7 tensors)

conv_layers.0.weight f4 [64, 20, 5]
000000 35 48 8c bc 6f fb 01 3d 25 f3 78 bd e8 08 3c bd
       -0.017124275 0.031733926 -0.060778756 -0.04590693
000010 d4 c1 dd bd 24 f0 d4 bd 7b 4f 0e 3e 8f 48 3a be
       -0.108279854 -0.10397366 0.13897507 -0.18191741
000020 f0 d8 1a 3d 8c 2b 02 3e b7 76 ae 3c 9d 54 89 bc
       0.037804544 0.12711924 0.021296842 -0.01676398
000030 00 a9 da bd 09 ea 95 3c c5 2a dd 3d 79 a6 d8 3d
       -0.106767654 0.018300073 0.10799173 0.10578627
000040 31 5b 48 3c 54 72 56 3d 4f 2a d1 bd a1 cd e0 3d
       0.012228773 0.052355126 -0.10213148 0.109767206
000050 32 2b 1e be 5a a8 c0 bc 25 d7 87 3d 67 b3 c2 bd
       -0.15446165 -0.023517776 0.066328324 -0.095068745
000060 bb 93 0a be e9 28 b2 3d db 18 80 bc 2e 59 47 3d
       -0.13532917 0.08699209 -0.015636852 0.048669033
000070 fc 24 d7 3d 5c c7 a2 bc 39 90 0a 3e ce f2 93 3d
       0.10505101 -0.019870453 0.13531579 0.07224046
000080 0f 64 9c bd 25 95 ba bd 2e 13 71 3d 2c 66 b8 3d
       -0.07636272 -0.09110478 0.05885618 0.09003863
000090 a2 0e 86 bc ba b5 db bd e3 d7 f5 3a b4 8d 9b bd
       -0.0163644 -0.10728021 0.0018756356 -0.07595387
0000a0 ea 20 9b bc 64 55 54 3d b2 bb f1 3d 04 dc 01 3c
       -0.018936593 0.051839247 0.11803378 0.007925991
0000b0 07 13 03 bc ac cf 15 bd 35 3e c7 bd 1d 8e 29 bd
       -0.008000142 -0.036575004 -0.09728662 -0.041395295
0000c0 25 de 88 bd de cd 0e be 37 17 fd bb cc 98 00 3d
       -0.06682996 -0.1394572 -0.0077237147 0.03139572
0000d0 19 0b 09 be 17 86 2a 3c 76 8e 1d 3d 63 20 1a 3d
       -0.1338314 0.010407946 0.03846594 0.037628543
0000e0 52 3d b8 bd ab 2a a9 3c 31 8b 6a 3d 5b ab 88 bd
       -0.08996071 0.020650228 0.05726165 -0.066733085
0000f0 f0 a9 62 3d 2b db 42 bd 98 9c 4f 3d 26 5c a8 bd
       0.055337846 -0.047572296 0.05068645 -0.08220701
000100 b6 71 45 3a 86 a6 a9 3b ba 99 3a 3c 61 6e 6f 3d
       0.0007531898 0.005177322 0.01138919 0.058454875
000110 36 4d 19 3d 5b e5 43 3d 1a 5d 77 3d 33 2a 66 bd
       0.03742715 0.047826152 0.060391523 -0.056192588
000120 24 4a c0 3d be 93 83 3d f2 4f 0b be 3a 44 f4 bd
       0.09389141 0.06424664 -0.13604715 -0.11927076
000130 78 bd 39 3d 01 c9 66 3d 36 83 0f bc 67 25 42 3d
       0.045346707 0.056344036 -0.0087593105 0.04739895
000140 e6 6f 83 3d 24 49 b8 bc a5 4a f2 bc 86 b0 0c bd
       0.06417827 -0.022495814 -0.029576609 -0.034348033
000150 da 6b 7c 3d ab 61 6b 3d ef cd ca 3d 5c 0b 9d bd
       0.061626293 0.05746619 0.0990256 -0.07668182
000160 c1 70 08 be d5 62 4d bc be 11 c2 3a fd 69 88 3c
       -0.13324262 -0.01253577 0.0014806313 0.016652102
000170 0d f8 04 be 99 64 e4 3b 0a d5 79 3c e7 ce 71 3d
       -0.12985249 0.00697 0.015248546 0.059035208
000180 a4 84 9f bd 92 1d 65 3d e1 a7 21 3d 70 4b 83 bc
       -0.07788971 0.055936404 0.039466742 -0.016027182
000190 62 be 51 bd af dc 16 bc 5f 80 ab bd 2d ca 46 bd
       -0.051206954 -0.0092078885 -0.08374094 -0.048532654
0001a0 45 f3 99 3d 6f 1f 21 3e 80 ae 99 3b 4d 9b 1b 3e
       0.07517103 0.15734647 0.0046899915 0.15195961
0001b0 f3 a0 e5 bb b3 e7 6a bc 2b db 2b bc 7e 40 86 bd
       -0.007007712 -0.014337468 -0.010489265 -0.0655527
0001c0 16 0c 3f bd 90 f5 ae 3d 3f a4 48 be 9d bf 56 bd
       -0.046642385 0.08542931 -0.19593905 -0.05242883
0001d0 d6 81 ef bd 72 d2 0b 3d d9 89 ff bc 44 a8 21 be
       -0.11694686 0.034136243 -0.03119366 -0.15786844
0001e0 0c f6 67 bc dd c5 a4 bb 91 63 a2 bb b4 eb ba 3d
       -0.014157783 -0.00502847 -0.004955717 0.09126988
0001f0 7b ed cc bd e8 a0 d8 bd 6b 73 b0 3d 95 de 34 3d
       -0.10006233 -0.105775654 0.08615764 0.044157583
000200 bc c9 14 be 72 92 24 be be bf 4c 3d b2 74 41 be
       -0.1453008 -0.1607149 0.049987547 -0.18892172
000210 e7 30 a6 bc 5c c8 2a 3c 31 a5 a2 3d 22 97 0b bc
       -0.02028699 0.010423746 0.07941664 -0.00851992
000220 f8 04 a7 3c 5c 39 37 3d cc 7a 3d 3d d0 74 3e bd
       0.020388111 0.044732437 0.046259686 -0.04649812
000230 80 16 f3 3d 81 c9 c4 3c 56 ed eb bc ac 9a 72 bd
       0.11869526 0.024021866 -0.028799694 -0.059229538
000240 7d 74 80 3d 7b c6 a5 3d 16 30 09 3e 4c f6 de 3d
       0.062722184 0.08094498 0.1339725 0.10886821
000250 55 11 59 bd 13 9e 26 bd c3 ff b4 bd 6e f7 b4 3c
       -0.052995045 -0.040678095 -0.08837845 0.02209064
000260 54 3d 58 3c 7e 32 d3 3c b2 a6 04 3e cf 9b 6a bd
       0.0131982155 0.025780912 0.12954214 -0.057277497
000270 d4 86 1b 3c 98 b2 85 3d b9 02 93 3d 5a 3c 50 3c
       0.009492595 0.06528205 0.07178254 0.012709701
000280 19 3f 9e bd c6 0c 3d 3d 97 62 10 3e fd 1f 16 3d
       -0.07726879 0.04615476 0.14100109 0.0366516
000290 58 f3 9b 3d ae 12 b3 bd 43 0c 97 bd 61 ca 85 3c
       0.076147735 -0.08743797 -0.073753856 0.016331853
0002a0 c4 5c 1c 3e 3f 0d 0b bd ac ef 9b 3b b7 df e0 bd
       0.15269762 -0.03394818 0.0047587957 -0.1098017
0002b0 e9 40 ed bd 33 eb f0 bc 64 f1 68 be 6d 46 4c 3c
       -0.11584646 -0.029409027 -0.22748333 0.012467963
0002c0 13 99 b8 3c f6 ce 81 3d 6d 9b 02 3d 8c 42 13 bd
       0.022533929 0.06338303 0.031886507 -0.035952136
0002d0 a1 4a ca 3d a5 48 81 bd cd 56 f9 bd f8 92 8d bc
       0.098775156 -0.06312684 -0.12174759 -0.017281994
0002e0 5f af 62 3d 5d 7e 4d bd ff 8f 51 bd 0a 0f 76 bd
       0.05534303 -0.050169338 -0.051162716 -0.060072936
0002f0 41 3d a1 3d 5a 42 3b 3d 6b d8 16 3d 8e 3a 2b 3e
       0.078730114 0.045717575 0.036827486 0.16721556
000300 e4 1c 56 3a 68 2c 63 3d fa df e1 bd 16 f1 e6 bd
       0.0008167757 0.05546227 -0.11029048 -0.11276452
000310 6c 0a 19 be 79 9c 2c bc 05 14 e3 3d 87 fe 75 3c
       -0.14945382 -0.010535353 0.11087803 0.015014297
000320 f0 2d ca 3d bf e1 63 bd c2 91 56 3d 61 18 c1 bc
       0.09872043 -0.05563521 0.0523851 -0.023571195
000330 3d 60 c8 3d 94 dd 9c bd 6e 95 02 3e ff 7a 83 3d
       0.09783981 -0.0765945 0.12752315 0.06419944
000340 b5 07 82 bd 8c 6b 94 bd 0f e6 a1 3c df e4 34 bd
       -0.06349126 -0.072470754 0.01976302 -0.04416358
000350 61 11 ab bc 23 76 c6 bc 18 63 33 be d2 e9 90 3d
       -0.02088231 -0.024226254 -0.1751827 0.07075848
000360 05 b9 8e bc 53 58 b6 3d 49 a0 94 bd 6b 40 00 3e
       -0.017422209 0.08903565 -0.072571345 0.12524574
000370 96 af 93 3c 36 84 73 bd d5 a5 a4 3d 9a cc bc 3d
       0.018028062 -0.059452258 0.080394424 0.09218712
000380 a7 0b 9f 3c d9 c6 a8 3c 69 54 89 3d b9 e2 6d 3c
       0.019414736 0.02060263 0.06705553 0.014519387
000390 dd df 64 bd cb f5 b8 bd 54 bd 05 bd 79 5f b4 3c
       -0.055877555 -0.09031256 -0.03265126 0.022018181
0003a0 e5 96 cc bc dd 7f 89 3d 82 40 3f 3d 8f fd 06 3e
       -0.024974296 0.06713841 0.04669238 0.13182662
0003b0 2e db 7f 3d 95 89 82 3c f4 21 81 3d 7d c6 10 bc
       0.062464885 0.015934745 0.06305304 -0.008836386
0003c0 d8 30 75 bd 74 ff f8 bc 4e 58 cb bc b7 61 59 bc
       -0.059861034 -0.030395247 -0.02482238 -0.013267926
0003d0 f5 3a c2 3d 0e 78 99 bc 40 c6 7e 3d 84 bd e9 3d
       0.094839014 -0.018734004 0.062200785 0.114131
0003e0 7d 7b 9e bc 2c a9 96 3d 82 dc 72 3d 2f 8e a5 bc
       -0.019345993 0.07356486 0.059292324 -0.0202094
0003f0 25 ec bd bc fc 03 34 be 99 0e b4 3c 59 d5 ef bb
       -0.023183892 -0.17579645 0.021979617 -0.007319134

conv_layers.0.bias f4 [64]
000000 2d 64 c1 bb d8 0e 25 bd 47 e2 82 bd c1 ff c3 3d
       -0.0059018345 -0.04029736 -0.06390815 0.095702656
000010 77 b3 a9 3d d8 d0 09 3c f6 1b c6 3c 16 6b a7 3c
       0.08286183 0.008411609 0.024183255 0.020436805
000020 2d f9 a4 3d 6c 19 ae 3d 5b f7 d0 3c ca 1d 03 bd
       0.08055339 0.085009426 0.025508573 -0.03201083
000030 17 41 5b bd 11 79 ca bc e3 8d 87 bd ad 00 52 3d
       -0.05352887 -0.024715932 -0.066188596 0.051270176
000040 57 90 94 3d 9f da bf 3d d2 b7 6d 3d ba 04 9b 3c
       0.07254093 0.093678705 0.058036633 0.018923152
000050 9e 0a cc 3d fe d8 8b bb fb 68 4e 3c 85 18 f1 3c
       0.099629626 -0.004267811 0.0125982715 0.029430637
000060 56 97 95 bd b2 33 47 3d ae 33 3e bd 6b e0 ee bc
       -0.07304256 0.048633285 -0.046436004 -0.029159745
000070 08 a1 a1 bd 37 fb a0 3d e8 7d 1a 3d df 6d ce bb
       -0.078920424 0.078604154 0.03771773 -0.0062997187
000080 01 ee 10 bd a2 1a 61 3c 58 92 0a bd 1a 5b 35 bc
       -0.03538323 0.01373926 -0.03383097 -0.011069084
000090 39 06 32 bd fe 05 c9 3c af 07 e4 3d 0a 7e 88 3d
       -0.043462966 0.02453899 0.11134278 0.06664665
0000a0 32 5e 94 bd 37 db 8e bd bf bf 91 bb 04 7b a0 3d
       -0.07244529 -0.06975406 -0.0044479067 0.07835963
0000b0 8d a5 cc 3b cd 06 c3 3d e1 57 77 3d f8 bd 0e 3d
       0.006245321 0.095227815 0.060386542 0.034849137
0000c0 02 41 c1 3d 10 68 c5 3d f3 f9 21 bd 62 5a 7d bc
       0.094362274 0.09638989 -0.03954501 -0.0154634435
0000d0 c2 44 fb b9 47 2b a1 bd 92 6b cd 3c 76 22 91 bd
       -0.0004792568 -0.078695826 0.025075708 -0.07086651
0000e0 f0 96 75 bd 64 32 10 bd bf a9 0b 3c ce 05 89 bd
       -0.0599584 -0.035204306 0.008524357 -0.0669056
0000f0 b5 ed ba 3c b0 ec 8f bc 9b 8c fb bc 01 d7 d1 bc
       0.022818426 -0.017568916 -0.030706694 -0.025615217

conv_layers.3.weight f4 [64, 64, 5]
000000 1c f0 25 3d b7 ce 90 bc 5a de 9b bc ea f2 59 bd
       0.04051219 -0.017676694 -0.019026924 -0.053210177
000010 b5 77 9f bc 70 b5 6a 3b ad f9 c1 3a 0e 21 c0 bc
       -0.01946626 0.0035813712 0.0014799141 -0.023453262
000020 a6 21 39 bd 3e 18 aa 3c 65 69 35 3d 33 e3 04 3d
       -0.045198105 0.020763513 0.044289965 0.032443237
000030 32 fa 72 ba ae 83 0d bd e0 76 ec 3c 73 8c f1 bc
       -0.00092688494 -0.034549408 0.028865278 -0.029485917
000040 4f 41 81 bd 83 01 43 3a 19 82 4e 3c ec 3f 5f bc
       -0.06311285 0.0007438885 0.01260426 -0.01362608
000050 80 88 75 3c b1 ff a4 3c 56 fe 1a bd 3f 62 01 3d
       0.014986157 0.020141454 -0.03784021 0.031587835
000060 e8 42 9a 3b ce cf f1 bc f1 8b 4e 3d 76 16 4a 3d
       0.004707683 -0.029518034 0.050426427 0.049337827
000070 c7 63 b9 bc 8f 8c f8 3c e3 17 62 bd 53 2c 1e 3d
       -0.022630585 0.030340461 -0.05519856 0.03861649
000080 ab 04 62 bd 48 96 35 bd 1e 21 d6 3b 24 3c 6c bd
       -0.055180233 -0.044332772 0.0065347096 -0.057674542
000090 f9 83 30 ba d6 49 87 bb a5 68 ae bc 8a b4 0b 3d
       -0.00067335326 -0.004128675 -0.021290133 0.034107722
0000a0 e2 f9 49 bc 0a f0 47 bd 84 b0 3b bd f8 a0 68 bd
       -0.012327643 -0.048812903 -0.045822635 -0.056794137
0000b0 e0 a0 3a bd 7d 8b 2b 3d a2 5f 83 3c 70 74 40 3c
       -0.04556358 0.041881073 0.016036812 0.011746511
0000c0 84 63 c4 3c 53 bb 0b 3c 30 a9 42 bd ff cf 36 bd
       0.023973234 0.008528548 -0.04752463 -0.044631954
0000d0 00 aa 3c 3d 40 06 3f bd 8f 5b 20 bd a5 cf ca bc
       0.046060562 -0.04663682 -0.039149817 -0.024757216
0000e0 b4 f4 98 3c 7f cb 24 bd b5 c7 19 3d ee 0f cb 3c
       0.018671371 -0.04023313 0.03754397 0.02478787
0000f0 1e 8f 19 3d 38 04 13 3d 84 38 25 bd b7 48 3b bb
       0.037490003 0.035892695 -0.0403371 -0.0028577277
000100 53 6e da 3c be 99 97 3c 34 81 50 3b 90 3a 1d bd
       0.026663935 0.018505927 0.0031815292 -0.038385928
000110 86 ce a9 b9 b7 a3 a4 bc dc 22 42 bd 27 af 1c 3c
       -0.00032388064 -0.020097597 -0.047396526 0.009563244
000120 a8 08 29 3d 8a ed d3 bc 86 23 5d 3c 7b 08 10 bb
       0.04126802 -0.025870103 0.013497239 -0.002197771
000130 90 9a 12 3d 18 27 83 bb 06 67 31 3d 88 f1 24 3c
       0.035791934 -0.004002463 0.04331114 0.010067351
000140 69 ca 21 bd 3b 33 76 bd 88 2e d4 bb 6c 83 8a 3c
       -0.039499674 -0.06010745 -0.0064752735 0.01690837
000150 48 94 34 bd 21 24 4a bd b3 79 76 bd c8 d0 73 bd
       -0.044086725 -0.04935086 -0.060174655 -0.05952528
000160 f4 82 2c 3d 16 c0 0a 3d 81 fd e1 3c 08 69 74 bd
       0.042117074 0.033874594 0.0275867 -0.059670478
000170 ad 43 2f 3d 0a 82 e7 bb db 96 8a 3c 3e f8 c9 3c
       0.04278915 -0.0070650624 0.016917637 0.024654504
000180 7b f7 2b bd 9e cc c0 bc af 62 56 3d 9e 0f 51 3c
       -0.041984063 -0.02353507 0.052340206 0.012760071
000190 07 46 0c 3d 2d 1a 2b bc 71 25 fe 3c 0c 74 0e bd
       0.03424647 -0.0104432525 0.031023713 -0.03477864
0001a0 60 a1 ff bc d9 44 80 3c 23 eb 96 3b 62 27 92 bb
       -0.03120488 0.01565783 0.004605667 -0.004460261
0001b0 e8 94 0f bd 64 2d 43 bc 3d 9c 87 3c fa 2d 28 3b
       -0.035054117 -0.011912677 0.016553992 0.002566217
0001c0 d5 f5 4b bc b7 a0 9c 3c 28 98 47 3d 6c b3 43 bd
       -0.012448748 0.019119604 0.048729092 -0.047778532
0001d0 c2 db 18 bd 33 b2 07 bd f3 39 28 bd 2a da 27 3d
       -0.037318952 -0.03312893 -0.04107089 0.04097954
0001e0 a4 c0 c7 bb 99 b4 2e 3d c1 7c 93 bc 1d 08 2d 3d
       -0.0060959626 0.0426527 -0.018003823 0.042244066
0001f0 d0 0a 55 bd b9 f3 c2 bc 04 08 50 3d 0f 14 96 3b
       -0.052012265 -0.023797857 0.050788894 0.004580028
000200 14 0c 1a 3d 41 1c 71 bc 24 1a 4f 3d 63 27 7f bc
       0.037609175 -0.014716209 0.05056204 -0.015573355
000210 8e 79 f7 bb 52 f6 e8 bc f6 48 53 bc de 60 f6 bc
       -0.0075523322 -0.028437767 -0.012895813 -0.030075487
000220 a2 22 2a bd 48 e1 05 3d 4f 44 27 bd c8 e4 b9 bc
       -0.041536935 0.032685548 -0.04083663 -0.0226921
000230 66 3e c8 3c 37 53 d6 3a 41 33 00 3d 30 fe 77 3c
       0.024443816 0.0016351704 0.03129888 0.015136287
000240 45 58 30 bd 32 d8 e0 3c 62 f0 da bc 45 8f b0 3c
       -0.04305293 0.02744684 -0.026725952 0.021552691
000250 57 86 2a 3d b1 db 39 ba ff 80 6d 3b 2c 4d f8 3b
       0.041632023 -0.00070899265 0.0036240218 0.007577559
000260 8a e6 60 3c 9b 17 3c bd d5 c7 3a 3d 0a 1d 3c 3d
       0.01372684 -0.04592095 0.04560073 0.04592613
000270 60 e5 03 bd 30 86 83 bb da 87 2e bd cd ed 73 bd
       -0.03220117 -0.004013799 -0.042610027 -0.059552956
000280 a2 60 aa 3c 58 af 2a 3d 98 33 47 3c dd 99 bd bc
       0.020798031 0.041671127 0.012158297 -0.023144657
000290 1a 70 38 3d ee bd bd bb 1d 50 93 ba 6c ec fa bc
       0.045028783 -0.0057904636 -0.0011239086 -0.030630313
0002a0 e2 25 57 3d d0 34 73 3b f3 7a 94 3b 20 62 3c bd
       0.052526362 0.0037110336 0.0045312583 -0.045992017
0002b0 ea 46 22 3d 47 57 32 bd 3b 35 f5 bc 0a 94 90 bc
       0.03961841 -0.043540265 -0.029932609 -0.017648716
0002c0 1e 15 c8 bc 9e 8e 30 bc a0 55 c2 3c f1 2e 5c bb
       -0.024424132 -0.01077619 0.02372247 -0.0033597315
0002d0 f8 65 75 bc 03 c5 3b bd 74 17 52 bd 13 40 f1 3c
       -0.0149779245 -0.045842182 -0.051291898 0.029449498
0002e0 b3 ea 2d bc 4c 23 2c 3d eb 2d 4f 3d 9e 6e 28 3d
       -0.010615039 0.04202585 0.0505809 0.041121118
0002f0 af cd 24 3d cf 93 0a 3d e1 59 03 bd ec 70 58 bb
       0.040235218 0.033832368 -0.032068137 -0.003302629
000300 ad 04 6e 3d c2 92 2c 3d ee 43 5b bd 13 e0 ce bc
       0.058109928 0.042132147 -0.05353158 -0.025253331
000310 aa 8e 82 3b 38 11 e6 bc c4 f8 89 bc ef 11 4c 3d
       0.003984292 -0.028084382 -0.016842254 0.04982179
000320 f6 45 c4 bc 3d d7 25 bc b4 8f 2d 3d cc f1 81 3c
       -0.023959141 -0.010122118 0.042373374 0.015862368
000330 45 e0 0c bc 20 89 8f 3c f1 0b 35 3d a5 83 e9 3c
       -0.008598392 0.017521441 0.04420084 0.028505156
000340 98 19 6a bc 39 0b 78 3c 94 93 c9 bc 66 de 61 3c
       -0.014288329 0.015139394 -0.024606504 0.013785934
000350 1c 7a 2a 3d da c0 50 3d 37 fa b8 3b 1d 84 ba bc
       0.04162036 0.050965168 0.0056450623 -0.022768075
000360 27 0b 5f 3c a5 f7 10 ba ea 78 d3 3b 89 eb 24 bd
       0.013613499 -0.0005530066 0.006453623 -0.040263686
000370 9d 5a 4e bd fe 8a 98 bc ea 7c ad 3c 7c 11 fa 3a
       -0.050379384 -0.018620964 0.021177728 0.0019078697
000380 cf 37 0d 3b 2f 4a 04 bd 15 13 6c bd 46 49 41 bd
       0.0021548157 -0.03229731 -0.057635386 -0.04718902
000390 91 fd b6 bc da c4 43 3d 8a 17 10 bc 2f 81 15 bc
       -0.022337707 0.047795154 -0.008794675 -0.009125038
0003a0 88 5d 6d bc da 1e 2b bb a4 9b 31 bc 07 07 5c 3c
       -0.014487632 -0.0026110918 -0.01084033 0.01342941
0003b0 44 5a 13 3d e7 50 fb bc 3b 18 6d bc 80 f2 6f bd
       0.035974756 -0.030678226 -0.014471109 -0.058580875
0003c0 77 08 34 bd 22 2f 44 bc fe df 5f bd 96 3e fd bc
       -0.043953385 -0.011974128 -0.054656975 -0.030913632
0003d0 f7 71 36 bd 85 74 1e 3c 47 2c 62 bc fb 5c d1 3c
       -0.04454228 0.009671335 -0.013804502 0.025557032
0003e0 cd 49 9e bc c4 92 0a 3d 62 42 35 3d 8c 29 49 bd
       -0.0193223 0.033831373 0.04425276 -0.049111888
0003f0 c3 b9 20 3c 50 e8 72 bd 01 87 69 3b ec b2 48 bd
       0.009809914 -0.05930358 0.0035633447 -0.04899876

conv_layers.3.bias f4 [64]
000000 3e d4 eb bc 7f c8 1a bd ba 30 74 bb c3 1c 8b 3c
       -0.028787728 -0.037788864 -0.0037260489 0.016981488
000010 d3 0d ac bc 67 9c 66 3d 21 bb 27 ba 63 f2 b3 3c
       -0.021002686 0.0563015 -0.0006398429 0.021966165
000020 3d 06 58 bb e2 df 80 bd 62 c2 28 bd 88 c8 7c 3c
       -0.0032962703 -0.06292702 -0.041201003 0.01542867
000030 b7 f0 47 3c 51 7f 8a 3a b7 b9 4d 3d 66 6d 62 3d
       0.012203387 0.0010566508 0.05022594 0.05528011
000040 c4 c3 65 3d 9a ce 9f 3c 96 8e 93 3d de 57 97 bc
       0.0560949 0.019507695 0.072049305 -0.018474516
000050 ae 34 30 bd d3 df 44 bd 63 09 6f bd df 2e ad 3c
       -0.04301899 -0.048065018 -0.05835856 0.021140514
000060 92 85 be bc 31 44 d2 3c 6c 9f 0f bd d1 80 70 bd
       -0.02325705 0.025667282 -0.035064146 -0.0587166
000070 9b fe 99 3d 69 cd 22 bd f7 c2 ff bc 4b cb 27 3d
       0.07519265 -0.039746676 -0.031220896 0.04096536
000080 60 a6 85 3d b2 7e d0 bc 75 36 8b bc 5e 39 9c 3c
       0.06525874 -0.025451038 -0.01699374 0.019070324
000090 fa 9a cf bc 8d af e4 bc db 8c 94 3d 9b c3 2a 3d
       -0.025342453 -0.02791574 0.072534285 0.04169045
0000a0 8a c2 8f bc b2 b7 3a bd a6 43 76 3a a6 7a 84 3d
       -0.017548818 -0.04558534 0.00093942357 0.06468706
0000b0 cc c8 28 bd e5 93 d0 bc 1e 20 2e 3d 33 b2 3a 3d
       -0.04120712 -0.025461147 0.042511098 0.0455801
0000c0 83 35 96 3b 82 a5 44 3d fe 4f 95 3d 77 f1 78 3d
       0.004584016 0.048009403 0.07290648 0.060777154
0000d0 f5 c4 05 bd 04 d9 b6 3c 00 7a 4d 3d c8 30 58 3d
       -0.032658536 0.022320278 0.050165176 0.052780896
0000e0 b8 16 0f 3d d4 81 43 3d ee 7c 58 3d 5e a7 9e bc
       0.034933776 0.047731236 0.052853517 -0.019366916
0000f0 54 c3 41 bc db 1b c7 bc ef 91 0d 3d 4b ae 3a 3d
       -0.011826355 -0.024305275 0.034563 0.045576375

fc1.weight f4 [128, 576]
000000 60 eb 14 bc 96 f8 95 3c 2b 78 d5 bb ab 08 7f 3c
       -0.009089321 0.018307012 -0.0065145693 0.015566031
000010 ef e0 09 bd dc e7 06 bd a6 f7 02 3c 80 41 d6 3b
       -0.03366178 -0.032935962 0.007993614 0.00653857
000020 90 a8 0c bc 14 a9 0b 3d 9b 90 64 3c 47 7c 29 3d
       -0.00858511 0.034096792 0.013950492 0.041378286
000030 56 d8 57 3b e0 ef fa 3b 40 07 12 bd d6 47 3c 3c
       0.0032935343 0.00765799 -0.035651445 0.011491736
000040 c0 66 86 bb 0e 24 c9 bc 48 da b5 3c 7e ad a0 3c
       -0.004101604 -0.024553325 0.022198811 0.019613978
000050 56 bc 30 3c 2b f0 9d ba d4 83 00 3d e0 e3 1e 3d
       0.01078709 -0.0012049725 0.03137572 0.038791537
000060 d3 df 9b 3c 38 60 cb 3c 93 cf 0b 3d b6 58 cd 3c
       0.019027626 0.024826154 0.034133505 0.025066715
000070 b1 70 0c bd d8 1b 76 bc 8c c0 2a bd 41 ae 96 3a
       -0.03428716 -0.015021287 -0.041687533 0.0011496024
000080 d9 e5 ab 3c 21 dc 1d bd 18 25 24 bc aa e3 c4 3c
       0.020983623 -0.03854001 -0.010018609 0.02403434
000090 06 35 30 bd d5 73 37 3c 83 49 bd 3c 70 05 1d 3c
       -0.043019317 0.01119705 0.023106342 0.009583816
0000a0 87 f1 39 bd 6f e4 0f 3d 46 dc bc bc 87 4b 09 bd
       -0.045396354 0.03512996 -0.023054253 -0.033519294
0000b0 30 3e 2b 3c 20 55 bc bc 45 fa e5 3c 73 22 aa bc
       0.010451838 -0.02298981 0.02807344 -0.02076838
0000c0 98 43 40 bc a8 3e 05 3d ed 07 9a 3c 1e 4a 83 3c
       -0.011734866 0.032530457 0.018802607 0.016026553
0000d0 94 88 03 3d 17 b4 9b 3c 3b 58 4b bc e3 97 ff bc
       0.032112673 0.019006772 -0.0124111725 -0.031200355
0000e0 8e 07 ac bc 90 16 ed 3c 65 a2 80 bc 5c d9 03 bd
       -0.020999696 0.028941423 -0.015702436 -0.032189712
0000f0 eb 6d 37 bb db b0 74 bc fa 43 23 bd 34 59 d9 3c
       -0.00279891 -0.014934744 -0.03985975 0.026531793
000100 dc 79 13 3d c8 f3 b8 3c e0 4f ab bc 4e 03 38 3b
       0.036004886 0.022577181 -0.02091211 0.0028078142
000110 0e 4d 40 3c 6e 26 fc 3b df 6f bd 3c fc ec fd bc
       0.011737121 0.007695011 0.023124633 -0.030996792
000120 14 97 1d 3d 53 30 1e bd 46 5d 2f bc 40 9c a7 bb
       0.038474157 -0.038620304 -0.01070339 -0.005115062
000130 e6 d5 90 3c e0 c7 95 bb 1e 88 13 3d 2b eb 53 bc
       0.01768012 -0.004570946 0.036018483 -0.012934486
000140 e6 49 97 bc 15 d3 6e bc 30 dd 0f bc 7b 4c c2 3c
       -0.018467855 -0.014576693 -0.008780763 0.02371811
000150 7a 9e 37 bd 31 58 35 bd 16 2a dd 3c d3 f7 99 bc
       -0.04482887 -0.04427356 0.026997607 -0.01879493
000160 30 c1 da bc eb 53 d0 bb 56 69 03 bc d3 c2 84 b9
       -0.026703447 -0.00635766 -0.0080207195 -0.00025322157
000170 d3 c2 11 bd ab 02 7b ba 90 bb d5 3c c6 0c 8a bc
       -0.03558619 -0.00095752877 0.026090413 -0.016851794
000180 c0 55 b1 bc 40 b8 03 bc 98 99 06 bd 9c 59 c3 3c
       -0.021647334 -0.008039534 -0.032861322 0.02384644
000190 8a cb 24 3c a1 66 46 bc 53 9f e2 bb 13 0d fc bc
       0.010058293 -0.01210943 -0.0069159656 -0.030767953
0001a0 1d 72 31 bd 57 06 ae 3c 0e 78 e5 3c 23 b8 b8 bc
       -0.043321718 0.021243257 0.028011348 -0.02254874
0001b0 68 bc 1a 3d c0 1d a1 3b 16 78 06 bd 93 f1 b4 bc
       0.037777334 0.0049168766 -0.032829367 -0.022087848
0001c0 5b 03 3a bc 00 48 74 39 76 7c 33 bc c8 51 dd 3c
       -0.011353339 0.00023296475 -0.010954967 0.027016535
0001d0 4b 40 93 3c bb 5e b8 bc d8 d1 b6 bc a8 77 bd 3c
       0.017974993 -0.022506109 -0.022316858 0.023128346
0001e0 bc 1d 2a bd 8e eb f7 bc bb 20 95 bc d3 26 89 3c
       -0.041532263 -0.030263688 -0.018204084 0.016742146
0001f0 60 dc 8c bc f7 ef 14 bd ec 5a 97 bc e9 aa 96 bc
       -0.017194927 -0.03636166 -0.018475972 -0.018392043
000200 85 60 d1 bc fc 6f 46 3b 18 d7 93 bc 45 f8 38 bd
       -0.02555872 0.003027915 -0.0180469 -0.045158643
000210 9c e7 3c bd ef f3 07 bd a0 61 e6 3c 15 bd c4 3c
       -0.046119317 -0.033191618 0.028122723 0.024015943
000220 33 4e 16 3c c5 75 30 bd 12 6d 91 bc 97 ab 2d 3c
       0.009173918 -0.043081064 -0.017752204 0.010599992
000230 81 fa 15 bc 06 b4 10 bd 73 4a d7 3c c3 97 3a 3c
       -0.009153963 -0.035327934 0.026280617 0.011388722
000240 5b d1 ef bc 16 27 7e bb 16 93 2d bb 6e 4d cc 3c
       -0.029274633 -0.0038780621 -0.0026485375 0.024939265
000250 4a 38 08 3d 83 5b f3 bc 56 89 b9 3a e6 9d 38 3c
       0.033256806 -0.029706722 0.0014155309 0.011268115
000260 74 2d 0d 3d 5b c6 6f bc b6 85 ce 3c 36 a5 15 bd
       0.034467176 -0.014634694 0.025210243 -0.03653451
000270 26 5c f9 bc 06 34 16 bd d0 28 aa bc ab 8e 4c bb
       -0.030439448 -0.036670707 -0.020771414 -0.0031212966
000280 9b 82 94 bc f3 b9 24 3d f9 e4 d9 bc ab 5d 3f 3c
       -0.018128684 0.040216397 -0.02659844 0.011680047
000290 b0 4d 89 3c a1 b4 fb bc b8 2d 1f bd 45 e1 f2 bc
       0.016760677 -0.030725779 -0.03886196 -0.029648433
0002a0 e5 11 74 ba d5 83 1e bc b6 27 9a bb 46 6b b3 bc
       -0.0009310528 -0.009674986 -0.004704441 -0.021901738
0002b0 73 ae 96 bc 7e 70 b2 bc 96 84 21 bd ce 0b cc 3c
       -0.01839373 -0.021782156 -0.039433084 0.024907973
0002c0 a8 d1 21 3d a6 50 a2 bc 00 e1 91 3a bc 3c 19 3d
       0.039506584 -0.019813847 0.0011129677 0.037411436
0002d0 68 ed ff bc 90 64 11 3d fe 78 90 3c 56 e4 3a 3c
       -0.031241134 0.035496294 0.017635819 0.011406979
0002e0 20 d7 c4 bc 1b 64 73 3c 58 d7 9d 3c 76 8f 16 3c
       -0.02402836 0.01485541 0.019267723 0.009189477
0002f0 f6 9a 3f bc bb 9c 2e bc f6 44 ee bc 23 3d b1 bc
       -0.01169466 -0.010657485 -0.029085618 -0.021635598
000300 0b fa c0 3b 6e e2 94 bc b3 fc 0c bd 14 9b 1a 3d
       0.0058891824 -0.018174376 -0.03442068 0.03774555
000310 c6 24 01 3c db c4 6e bc f7 26 07 bc f6 8f 3b 3c
       0.007882303 -0.014573301 -0.008249036 0.011447897
000320 40 32 c4 3b 3e a3 27 3d db 15 0c 3d c4 f0 1b bd
       0.0059874356 0.040927164 0.03420053 -0.03807141
000330 8b 2d 10 3c 7b 3b 2a 3c 66 c3 36 3c 10 c2 89 3b
       0.008799921 0.010390158 0.011154985 0.0042040423
000340 b4 ba b0 bc 71 01 3c bd c1 a7 04 bd 44 38 12 bd
       -0.021573402 -0.045899812 -0.032386545 -0.03569819
000350 56 ef d6 bc 86 c5 a8 3c 98 1b 0f bc 87 7a 1b bd
       -0.026237171 0.020601999 -0.008734606 -0.037958648
000360 ff f7 23 3c 87 17 bb 3c 7b 73 14 bd 39 a2 ee bc
       0.010007857 0.022838367 -0.036242943 -0.029130088
000370 d5 67 03 3d 5d 77 98 3c 55 c7 34 bd 94 5c 51 3c
       0.032081444 0.018611604 -0.04413541 0.01277842
000380 f2 19 df 3c c8 28 c6 ba 88 57 01 bd f2 42 26 bd
       0.027234051 -0.0015118355 -0.031577617 -0.040591188
000390 99 ed 8b 3a bd 6c 95 3c aa a0 a5 3b a6 49 ef bc
       0.0010675668 0.018240327 0.005054553 -0.029209923
0003a0 2c f9 02 3d f7 21 16 3d 9a e5 00 3d 8d 52 b8 3b
       0.03197591 0.036653485 0.031468965 0.005625075
0003b0 ce cd 4c bc 31 30 26 bc 88 79 40 3c bf e2 06 3d
       -0.01250024 -0.010143326 0.011747725 0.032931086
0003c0 b3 d4 a5 bc c8 0f b2 3c bb ed ed bc de 34 98 3c
       -0.020243024 0.02173604 -0.029044023 0.018579897
0003d0 00 1f 4b ba ab 1c ae 3c a6 7b 81 3c 66 c7 77 bc
       -0.0007748455 0.021253904 0.01580603 -0.015123224
0003e0 ca 57 03 3d 6b d1 02 bc cb cd 28 bd 70 48 58 bc
       0.032066144 -0.007984499 -0.041211884 -0.013200864
0003f0 46 12 88 3c 7b ae 70 3c ab 77 4a 3c ac d1 98 3c
       0.016610276 0.014690037 0.012357633 0.018654667

fc1.bias f4 [128]
000000 53 24 f7 bc 0b 0d 24 bd db cc f1 bb c2 17 0f 3d
       -0.030168688 -0.0400515 -0.007379157 0.034934767
000010 d4 f0 ab 3c 0b 7b 8e 3d 75 36 9d 3b b6 a5 59 3c
       0.02098886 0.06957062 0.0047977515 0.0132841375
000020 fe 30 49 3c 09 3d c2 bc f8 29 19 3d d0 4d 45 bd
       0.012279747 -0.023710744 0.03739354 -0.04816991
000030 b8 85 45 bd 62 02 5b 3c a8 22 87 3d 2a c3 1a bd
       -0.048223227 0.013367267 0.06598407 -0.03778378
000040 42 a2 08 3d 16 07 3c 3c f0 fa 25 3b c0 7a 5b bc
       0.033357866 0.011476299 0.0025326572 -0.013395965
000050 09 cb 89 3d ee 75 b7 3b 9f 34 a9 bc 8e 9d a4 bc
       0.06728179 0.005598775 -0.020654975 -0.02009466
000060 4b eb ba bc 5b dc e0 3c cb d8 27 3c 65 88 d0 bb
       -0.022817275 0.027448824 0.010244559 -0.0063639157
000070 da 5e 76 bb 6b 55 0e 38 4a ef fb 3c 53 84 8c bc
       -0.0037593157 3.393499e-05 0.03075375 -0.01715294
000080 d1 a7 08 3d 69 be c3 3c 1d 78 20 3d 47 56 04 bd
       0.033363167 0.023894506 0.03917705 -0.032308843
000090 6c 07 05 3d 3e 84 78 bc 63 95 51 3d 02 e1 17 bd
       0.03247778 -0.015168248 0.051167857 -0.03707982
0000a0 78 b5 08 bd 33 e5 b9 3b 84 64 ca bb 32 6e 6e bc
       -0.033376187 0.0056730746 -0.006176533 -0.01455264
0000b0 9c 89 b5 bb 6c 41 df 39 b1 fe 0c bd b6 80 47 3c
       -0.005540086 0.00042582618 -0.03442258 0.012176683
0000c0 33 67 e4 bc f6 19 2a 3d d6 30 2f bc 5f 30 24 bc
       -0.02788124 0.041528665 -0.010692796 -0.010021298
0000d0 eb 1b 1d bd 98 f5 75 3c c6 b0 0c 3d 1d 98 18 bc
       -0.038356703 0.015012167 0.03434827 -0.00931361
0000e0 56 fc 81 bc 1a 73 0e bd 0e b7 2c 3c 93 41 ab bc
       -0.015867393 -0.03477774 0.0105416905 -0.020905292
0000f0 cc 57 55 bb 24 cf 4c 3c 3e 28 d0 3c 5b 6c 8e 3d
       -0.0032553552 0.012500558 0.025409814 0.06954261
000100 77 e0 3d bc e6 e6 c2 bc d9 56 30 3d b6 c6 29 bd
       -0.011589161 -0.023791742 0.043051574 -0.04144927
000110 0c 60 53 3d a4 b3 24 3d 36 9f a4 3c d5 4c 03 3d
       0.05160527 0.04021038 0.020095449 0.032055695
000120 72 d3 d1 bc e3 12 87 3d 93 9a a4 3c 81 c6 59 3d
       -0.02561352 0.06595399 0.020093238 0.053167824
000130 fd 70 f6 bc 7c a1 99 3c c4 85 16 bc a3 30 93 bc
       -0.030083174 0.01875376 -0.009187166 -0.017967528
000140 c1 e2 f3 39 42 e4 75 3b 68 18 ae bc 29 d1 27 bd
       0.00046517517 0.0037520085 -0.021251872 -0.040970955
000150 62 0c 25 bc 76 97 da bb 2a 67 a0 3b a4 b8 9a bc
       -0.010073753 -0.0066708876 0.0048951106 -0.018886872
000160 56 30 28 3d 25 76 2a 3d 58 ae ee bc 09 09 b8 bb
       0.04106172 0.041616578 -0.029135868 -0.0056163114
000170 5d e1 08 3d 0a 93 1d bd 1b 6f 70 bc d7 5e 09 3d
       0.03341805 -0.038470306 -0.014674927 0.033537712
000180 f5 2b 85 3d a8 39 53 3d 48 02 0b 3c 16 42 fd bc
       0.06502525 0.051568657 0.008484431 -0.030915301
000190 3d 5c 74 3d 8c 8d ea bc 98 98 d0 bc 49 5a e8 3c
       0.059658278 -0.028631948 -0.025463387 0.028363364
0001a0 e7 44 a9 3c 96 81 b1 bb 13 b1 10 3d be ef df 3a
       0.020662738 -0.005417059 0.03532512 0.0017084999
0001b0 90 b2 60 3d 89 23 c8 bc 72 5d d0 3c e3 a9 30 bd
       0.05485779 -0.024431007 0.025435183 -0.043130767
0001c0 1e ec 61 3d 82 d2 30 bd 14 0c 8c 3c 88 f9 33 bc
       0.05515682 -0.043169506 0.017095603 -0.010984786
0001d0 56 53 33 ba 87 7d fd bc 69 76 d4 bc 23 ea 7a 3a
       -0.0006840726 -0.030943645 -0.025935369 0.0009571632
0001e0 cf 2c 18 3d 28 92 53 bc e3 42 55 3d 26 76 26 3d
       0.037152108 -0.012913264 0.05206574 0.04064002
0001f0 1b 3c a0 3b f7 15 3d 3d 25 83 21 bd f9 ed 26 bd
       0.0048899776 0.046163525 -0.03943171 -0.040754292

fc2.weight f4 [1, 128]
000000 27 1e a5 3c 25 bb 59 bd 54 33 c6 3d 36 7f c4 3d
       0.02015598 -0.05315699 0.09677759 0.09594576
000010 b6 d4 d0 3d cf 22 df bd 13 a7 1b 3e a2 38 c9 3d
       0.101968214 -0.10895311 0.15200453 0.09825255
000020 29 2c 06 3e 5a 73 35 3d c5 1f 16 3e a5 d8 1d 3d
       0.13102783 0.04429946 0.14660557 0.038536686
000030 67 7a 84 bd 4d fa 9a bd aa 8f 06 be 4c c2 df 3d
       -0.06468659 -0.07567272 -0.13140741 0.10925731
000040 2f 49 0c be df 7e 00 3e 28 09 20 3e 0a 95 d8 3c
       -0.13699792 0.12548397 0.15628493 0.026438255
000050 b4 60 e4 bd c3 74 d9 3d 0a 48 89 bd e4 db 85 3d
       -0.11151257 0.10617974 -0.067031935 0.065360814
000060 48 e4 3a bd 0c c3 a3 3d 4b 4f ce 3d 96 18 9a bd
       -0.045627862 0.079961866 0.10073718 -0.07524221
000070 f0 d4 20 3e 93 63 f4 3d d8 5b 7a bd b8 8e ff bd
       0.15706229 0.11933055 -0.061122745 -0.12478393
000080 e6 86 81 3d 39 e2 ee 3d dd fa af 3d 58 fe ff 3d
       0.06324558 0.11664242 0.0859277 0.12499684
000090 7f e1 df bd c1 7c 0f 3e fd 1a dd bd cd af 2d bc
       -0.10931682 0.14012434 -0.10796163 -0.010600996
0000a0 d4 9f 16 3d a4 2f ae 3d 84 1e fa 3c f2 74 a3 bd
       0.036773518 0.085051805 0.03053213 -0.0798129
0000b0 fe bf d8 3d 05 c0 d4 3c 8e b0 bd 3d 03 e0 1b 3e
       0.105834946 0.025970468 0.09262191 0.15222172
0000c0 3d 8f 73 3d 4e 08 54 bd f1 fd 04 3d e4 3d 04 3e
       0.059462775 -0.051765732 0.03246874 0.12914234
0000d0 e1 9a 98 bd d7 72 1a 3e ea 13 25 3e 72 73 c8 bd
       -0.07451416 0.1508287 0.16120878 -0.097876444
0000e0 7c 56 03 bc ff bf a5 ba 50 0d 1e 3e fb 13 32 bd
       -0.008016225 -0.001264572 0.15434766 -0.043476086
0000f0 bb 48 e0 3c 8c c0 17 3d 0a 62 a6 bd 43 46 e3 bd
       0.02737843 0.03704886 -0.08124168 -0.11097386
000100 6f e5 19 3e df ca 87 3c 87 cb bf 3d aa ff 16 3e
       0.15028928 0.016576229 0.09364992 0.14745966
000110 13 59 79 bd a3 b7 05 3e 40 9d de 3d 16 a9 a5 bd
       -0.060875963 0.13058333 0.10869837 -0.08088891
000120 74 ce ff 3d 8a 16 0b be 01 ba c7 bd 17 01 7e bd
       0.1249055 -0.13582817 -0.09752274 -0.062012758
000130 e2 88 57 3d 32 89 16 3e 4b 41 46 bb 4a a5 4b 3b
       0.052620776 0.14700773 -0.003025132 0.0031073862
000140 35 9a 0a 3e e3 35 e6 3d ae 1c 81 3d fb 62 0e bd
       0.13535388 0.11240747 0.06304298 -0.034762364
000150 da fb 1a 3e 85 b0 16 3e 45 16 7e bc 2a 1a a7 bd
       0.15135136 0.14715774 -0.015508239 -0.08159287
000160 9d ca c1 3d e3 2e a2 bd da 8a 26 bc c5 6b f1 3d
       0.094624735 -0.07919099 -0.010164941 0.117881335
000170 40 9f 9e 3d 33 96 87 3d aa be 9f 3d 17 64 c7 3d
       0.07745218 0.06620445 0.07800038 0.097358875
000180 79 80 0f be a7 fa 03 be 90 45 e5 bd 3a 68 29 3d
       -0.14013852 -0.12888585 -0.111949086 0.041359164
000190 81 16 a7 bd 7d ed 4d 3d 37 e2 6a bd 20 d0 88 bd
       -0.08158589 0.050275315 -0.05734464 -0.06680322
0001a0 38 66 01 3e 7b 2e a2 3a 12 1e 14 be 1f 00 77 3d
       0.1263665 0.0012373471 -0.14464596 0.06030285
0001b0 c7 ff f5 bd d6 57 17 bd 93 eb 02 3e 95 c4 11 bd
       -0.12011676 -0.036949 0.12785177 -0.035587866
0001c0 ab 5d bd bd 27 7e 76 bd de da 0d 3e c2 28 07 be
       -0.09246381 -0.060178902 0.13853022 -0.13199142
0001d0 d8 1a d3 bc e3 d7 40 bd 61 ae f4 bc 01 51 c4 3d
       -0.025769636 -0.047080886 -0.029868307 0.09585763
0001e0 32 85 8e bd 46 dc 46 bd d4 6e 0f be a0 4b 00 3e
       -0.06958999 -0.048549913 -0.14007121 0.12528849
0001f0 39 7a b3 3d 77 00 f6 bd 98 86 59 bb 5f fa 80 3d
       0.087635465 -0.120118074 -0.0033191796 0.062977545
