models/baselines/convolution_baseline/13_09/model_64_5_2_256_1.pt (torch, 407492 bytes, 7 tensors)

conv_layers.0.weight f4 [64, 20, 5]
0	0x3d654cb9	0.05598137
1	0xbb90ce23	-0.0044191047
2	0x3d47e518	0.048802465
3	0xbe0df828	-0.13864195
4	0x3db37ce8	0.08764058
5	0xbd6fcc7e	-0.05854463
6	0x3c37f94c	0.011228871
7	0xbd9b36c3	-0.07578804
8	0x3d831916	0.06401269
9	0xbc15c880	-0.009142041
10	0xbdc2a7d4	-0.09504667
11	0xbc9c28ee	-0.019062486
12	0xbc6a3217	-0.014294169
13	0xbb412186	-0.0029469444
14	0xbe1122b0	-0.14173388
15	0xbe13c60e	-0.1443102
16	0x3dcd2e60	0.10018611
17	0xbce30687	-0.027713073
18	0x3d53a8f0	0.051674783
19	0x3d44a29c	0.04800664
20	0x3e302016	0.1719974
21	0x3cd8e027	0.026474072
22	0xbdb96f9d	-0.09054492
23	0xbd20efc9	-0.039291177
24	0xbdb7b6fc	-0.089704484
25	0xbde5393b	-0.111925565
26	0xbdb5ce41	-0.088772304
27	0x3dbbe8ee	0.09175287
28	0x3da4a5a1	0.08039404
29	0x3d0d86b2	0.034552284
30	0x3dee829b	0.11646005
31	0xbd22639e	-0.039645784
32	0xbe011364	-0.12605053
33	0xbd5ef974	-0.054437116
34	0xbcaba805	-0.020954141
35	0xbcebfc57	-0.028806848
36	0x3d0579e9	0.032586966
37	0xbe2d9fad	-0.16955443
38	0xbcb8dd3c	-0.02256643
39	0x3d627d65	0.055295367
40	0x3ddf3d47	0.109003596
41	0xbdbb8452	-0.091560975
42	0xbabc5feb	-0.0014371848
43	0x3bade056	0.005306284
44	0xbdc5d175	-0.096590914
45	0x3d80b781	0.062850006
46	0xbdd73ea4	-0.105099946
47	0x3dae8c2c	0.085228294
48	0xbd87b0a5	-0.06625489
49	0xbc65fdf9	-0.014037603
50	0x3dc72a42	0.09724857
51	0xb9fdae79	-0.00048385913
52	0x3cb97870	0.022640437
53	0xbd81d199	-0.06338806
54	0xbd88600f	-0.06658947
55	0x3c628206	0.013824945
56	0x3a8b9eb8	0.001065216
57	0xbc6aea7e	-0.014338134
58	0x3dc7e618	0.09760684
59	0xbc8482be	-0.016175624
60	0xbd5a603c	-0.053314433
61	0x3dc05361	0.09390903
62	0xbdc3b000	-0.09555054
63	0xbdb0d6a7	-0.08634692
64	0x3caba415	0.020952264
65	0xbd9cdddb	-0.07659503
66	0x3d3e5fee	0.046478204
67	0x3d500794	0.050788477
68	0xbe19845d	-0.14991899
69	0xbd86e842	-0.065872684
70	0x3d77694c	0.060403153
71	0xbda0d070	-0.07852256
72	0xbdf4d273	-0.119542025
73	0x3d0e3d62	0.034726508
74	0x3ddfa595	0.10920254
75	0x3cddf1ad	0.027092779
76	0x3dc0eae3	0.09419801
77	0xbd96d1c3	-0.073642276
78	0xbc077cb6	-0.0082694795
79	0x3db2a107	0.0872212
80	0x3d0cd18c	0.034379527
81	0xbdb0674b	-0.086134516
82	0xbc0560f6	-0.008140793
83	0x3d58f284	0.052965656
84	0xbc12f149	-0.00896866
85	0x3d13e129	0.0361034
86	0x3a212e65	0.0006148576
87	0xbdc485c0	-0.09595823
88	0x3b2557a0	0.002522923
89	0xbd0ba7ca	-0.034095563
90	0xbd9cb9fd	-0.07652662
91	0xbd9912d1	-0.07474292
92	0xbdb97db4	-0.09057179
93	0xbe23fec1	-0.1601515
94	0x3d807d59	0.06273908
95	0xbd041a62	-0.032251723
96	0xbd58f88d	-0.05297141
97	0xbb3c778f	-0.0028757786
98	0xbd591df2	-0.053007074
99	0x3dccd7d3	0.10002103
100	0x3d82f620	0.06394601
101	0x3c219dd7	0.009864292
102	0xbe15a80a	-0.14614883
103	0xbd492ed9	-0.049116943
104	0xbc139cb2	-0.009009527
105	0xba387126	-0.00070359034
106	0xbc706e03	-0.014674666
107	0xbc6c0b11	-0.014406935
108	0x3d315ba6	0.043300293
109	0x3db3458e	0.08753501
110	0x3b163db9	0.0022924973
111	0x3dd49de9	0.103816815
112	0xbb596f72	-0.0033178
113	0x3d781d23	0.060574662
114	0x3cb23b79	0.021756874
115	0xbcab0078	-0.020874247
116	0x3d5f6cce	0.054547124
117	0xbdbe687e	-0.09297274
118	0x3d1ec7af	0.038764652
119	0x3dabbcd9	0.08385629
120	0x3e031a6e	0.12803051
121	0x3d6cc998	0.057809442
122	0x3d69e9e1	0.05710781
123	0x3c5992d1	0.013279633
124	0x3e1f9578	0.15584362
125	0x3bcc0c33	0.00622704
126	0xbc0410c9	-0.0080606425
127	0xbc01d064	-0.007923219
128	0x3dd1475c	0.10218689
129	0x3d83e646	0.064404055
130	0xbd1dca03	-0.03852273
131	0x3daf3b0d	0.08556185
132	0xbd02bc63	-0.03191794
133	0xbc868a54	-0.016423382
134	0x3cd366c0	0.025805831
135	0xbca308f8	-0.019901738
136	0x3d3ab8e4	0.04558648
137	0x3cd1deb7	0.025618894
138	0xbd6f4734	-0.058417514
139	0x3d522cf9	0.05131242
140	0x3c997917	0.018734498
141	0xbdcd006a	-0.100098446
142	0x3c48ee34	0.012263823
143	0xbdafe458	-0.08588475
144	0x3d713088	0.058884174
145	0xbd478dca	-0.048719205
146	0xbd83b275	-0.06430522
147	0x3d077fc3	0.033080827
148	0xbdbe48f2	-0.09291257
149	0x3de882de	0.11353086
150	0x3dbc9efa	0.0921001
151	0xbd91ea7b	-0.07124802
152	0xbcb255cb	-0.021769425
153	0xbc414b64	-0.01179776
154	0xbe49b736	-0.19698796
155	0x3b1ca936	0.0023904569
156	0x3e0a2ab7	0.13492857
157	0x3e074405	0.13209541
158	0xb7a13b0f	-1.9220197e-05
159	0xbdd3635a	-0.10321684
160	0x3c63be5a	0.013900364
161	0xbe0ae54f	-0.13564037
162	0x3cfcf1c8	0.030877009
163	0x3db4f463	0.088356756
164	0x3dbeb86b	0.09312519
165	0x3dbb9fc4	0.09161332
166	0xbd6d2a03	-0.057901394
167	0x3da87914	0.08226219
168	0x3bc154cf	0.0059000026
169	0x3d2fda06	0.042932533
170	0x3d60bc84	0.054867283
171	0xbd688cff	-0.05677509
172	0xbcc6d256	-0.024270218
173	0xbcbf163b	-0.02332603
174	0xbd199fe8	-0.037506014
175	0x3bdfcb6c	0.0068296697
176	0x3cfe983d	0.031078452
177	0xbc9a38fa	-0.018825997
178	0xbce642ce	-0.028108027
179	0x3cc0e1cc	0.023545168
180	0x3d922319	0.071356006
181	0xbe0ab026	-0.13543758
182	0x3d380285	0.044924278
183	0x3d9f4bf5	0.077781595
184	0xbd86ac00	-0.06575775
185	0x3d2685d3	0.04065497
186	0x3cfc4639	0.030795204
187	0xbd33d234	-0.043901637
188	0x3dbfcf1b	0.09365674
189	0x3d503e1c	0.050840482
190	0x3c57cf77	0.013172022
191	0x3bb79a43	0.005603106
192	0xbdc7857a	-0.097422555
193	0xbd91f9bb	-0.071277104
194	0xbdb208e6	-0.086931035
195	0x3d991ced	0.0747622
196	0x3d75cf87	0.060012367
197	0xbc7f110f	-0.015568032
198	0xbdaff04d	-0.085907556
199	0x3e233eca	0.15941921
200	0x3d2f2db5	0.0427682
201	0xbc179b15	-0.009253283
202	0xbca856b9	-0.020549165
203	0x3da4f70a	0.080549315
204	0x3d9968e0	0.074907064
205	0x3c2a7a67	0.01040516
206	0x3d186fb8	0.03721592
207	0xbcd1a213	-0.025589978
208	0x3d3ee5dc	0.04660593
209	0xbd853c65	-0.0650566
210	0x3e0bdea1	0.13659145
211	0x3d0a7cb9	0.03381035
212	0xbd5731a9	-0.052537594
213	0x3d8fe242	0.07025577
214	0x3da996d4	0.08280721
215	0x3d7fc4b5	0.062443454
216	0x3dd0aa9a	0.1018879
217	0x3d4d09cb	0.050058167
218	0x3d8cb9b9	0.06871361
219	0x3c322056	0.010871967
220	0x3b6c6bae	0.0036074924
221	0xbd6f32c8	-0.05839804
222	0x3c696dbe	0.014247356
223	0x3cd9c99f	0.026585398
224	0xbd8022ca	-0.062566355
225	0xbd6df9c7	-0.058099534
226	0x3d94bf26	0.07263021
227	0xbc1be253	-0.009514409
228	0x3d8a79af	0.067614906
229	0x3dc01fd8	0.09381074
230	0xbda97f74	-0.08276263
231	0xbd8aece0	-0.067834616
232	0xbcd3e4ac	-0.025865875
233	0xbdbb1e07	-0.09136587
234	0x3c2516f3	0.010076272
235	0xbc8dfc9a	-0.017332364
236	0xbdb97cca	-0.09057005
237	0x3e036811	0.12832667
238	0x3de7f79c	0.113265246
239	0xbd08ec35	-0.03342839
240	0x3b6920e9	0.0035572594
241	0xba569bef	-0.0008186688
242	0x3d8944c8	0.06702572
243	0xbd9d4b08	-0.07680327
244	0xba4f07dd	-0.0007897595
245	0x3e012eeb	0.12615554
246	0xbdd4833b	-0.10376593
247	0x3d0ec9a7	0.03486028
248	0x3c75f610	0.015012279
249	0xbe0b8e78	-0.13628566
250	0x3c62dd79	0.0138467485
251	0x3c8873e3	0.016656822
252	0x3df8e026	0.12152128
253	0xbe05a8c5	-0.13052662
254	0x3e160f8a	0.14654365
255	0x3dcf555d	0.10123704

conv_layers.0.bias f4 [64]
0	0x3dc3c1f4	0.09558478
1	0x3dec7f12	0.11547674
2	0x3db8fa2a	0.0903209
3	0x3bf069b0	0.0073368177
4	0x3d3b71c5	0.045762796
5	0x3d0be4f5	0.034153897
6	0x3cd9444b	0.026521822
7	0xbd12a337	-0.035800185
8	0xbc00add2	-0.007853942
9	0x3d00d6f9	0.031455014
10	0xb998e736	-0.00029163965
11	0x3d904246	0.07043891
12	0x3c4cc36a	0.012497762
13	0x3d46fde0	0.048581958
14	0xbc4cfd3a	-0.012511546
15	0xbcfbadac	-0.030722462
16	0xbbd24959	-0.006417435
17	0x39f9a49e	0.0004761563
18	0xbd656ba8	-0.056010872
19	0x3c73da3d	0.014883575
20	0xbbd138df	-0.0063849534
21	0x3dce89fb	0.100849114
22	0x3be3bb58	0.0069498233
23	0x3dd33534	0.10312882
24	0x3da2f421	0.0795672
25	0xbd6a2ea0	-0.05717337
26	0x3d569885	0.052391548
27	0x3daed773	0.085371874
28	0xbc603e76	-0.013686767
29	0xbcd8efa0	-0.02648145
30	0x3dcdecac	0.10054907
31	0x3d41d4c4	0.04732205
32	0xbb679636	-0.0035337335
33	0x3da132bf	0.07871007
34	0xbd49eeea	-0.04930011
35	0x3dd0f702	0.10203363
36	0x3b007ed6	0.001960685
37	0x3d53e8f1	0.051735822
38	0xbd4ae316	-0.049532972
39	0x3d446f78	0.047957867
40	0xbd4482bd	-0.047976244
41	0x3d4b3350	0.049609482
42	0x3dc3d5d6	0.0956227
43	0x3dddcbf1	0.10829914
44	0xbd8c6d77	-0.06856816
45	0xbd6ac336	-0.057315074
46	0xbccb018f	-0.024781017
47	0x3cb374ed	0.02190634
48	0xbcf01aab	-0.029309591
49	0x3bed86cf	0.0072487365
50	0x3bdbb782	0.0067052254
51	0x3de21f14	0.11041084
52	0x3dd98643	0.106213115
53	0xbd95e1b4	-0.0731844
54	0x3c83a2eb	0.016068896
55	0x3ddcbad5	0.10777823
56	0xbc55efc8	-0.013057657
57	0x3d6b9f9e	0.05752527
58	0x3c56d25a	0.013111675
59	0x3c2025fd	0.009774682
60	0xbd4eef72	-0.05052132
61	0xba6089e5	-0.000856547
62	0xbd88feb0	-0.06689203
63	0x3d4946cf	0.049139794

conv_layers.3.weight f4 [64, 64, 5]
0	0xbd38d964	-0.045129195
1	0xbcf1fd92	-0.029539857
2	0x3d9bc27a	0.07605453
3	0x3cb5654e	0.022143032
4	0x3c12ae7f	0.008952736
5	0x3c5f2f98	0.013622187
6	0x3d0c46e2	0.034247287
7	0xbd3fd093	-0.04682977
8	0xbd1abdb1	-0.03777856
9	0xbb6ad5b2	-0.0035832939
10	0xbc6a8745	-0.014314477
11	0xbd4ccebd	-0.05000185
12	0xbc74e1a4	-0.014946375
13	0x3ce0a43d	0.027422065
14	0x3c48d894	0.0122586675
15	0x3dc97f22	0.09838702
16	0xbc89eff6	-0.016838055
17	0x3c6a3e3f	0.014297067
18	0x3d84015b	0.06445571
19	0xbd358efa	-0.044325806
20	0x3d855687	0.065106444
21	0x3c9ec660	0.019381702
22	0x3cdd4c94	0.027014054
23	0xbd17a742	-0.037024744
24	0xbd8e36f3	-0.069440745
25	0xbc40938a	-0.011753926
26	0xbd48e24e	-0.049043946
27	0xbd74f390	-0.05980259
28	0x3ccca5c5	0.024981389
29	0xbda4c8bc	-0.080460995
30	0x3d1527f5	0.03641506
31	0x3ca98100	0.020691395
32	0x3d88033f	0.06641244
33	0x3d30c40e	0.043155722
34	0x3d192d83	0.03739692
35	0x3df36834	0.118851095
36	0x3da514c4	0.08060601
37	0xbcafd058	-0.02146165
38	0x3c18dec2	0.009330453
39	0xbbe945a0	-0.0071188956
40	0xbd758731	-0.05994338
41	0xbcf12269	-0.029435353
42	0xbd4651d5	-0.048417885
43	0x3c81a927	0.015827728
44	0xbd4dd94e	-0.050256066
45	0x3c9c9eee	0.019118752
46	0x3d338bc6	0.04383447
47	0x3d8bab77	0.06819814
48	0x3cca0803	0.024662023
49	0x3cb520e2	0.022110406
50	0x3d6be484	0.057590976
51	0x3d715a15	0.0589238
52	0x3d27a47b	0.040928345
53	0x3b33e3d1	0.0027449022
54	0xbd1e1d8c	-0.038602397
55	0x3d226dde	0.03965556
56	0xbd3e04e3	-0.04639138
57	0x3ba17bff	0.0049281116
58	0xbd5215f2	-0.05129046
59	0x3c8b7ab2	0.01702628
60	0xbdb8e157	-0.09027355
61	0xbc979d81	-0.01850772
62	0x3d12d6c9	0.035849366
63	0xbb7f785b	-0.003898165
64	0x3c8ae9b5	0.016957143
65	0x3cc9b07c	0.024620287
66	0xbcaea078	-0.021316752
67	0xbcbbf742	-0.02294505
68	0xbc398f73	-0.011325705
69	0xbc9d420e	-0.019196536
70	0xbbdd40db	-0.006752116
71	0x3cb9a4d2	0.0226616
72	0xba8c346c	-0.0010696775
73	0x3d83472e	0.06410061
74	0x3e023403	0.12715153
75	0xbc456695	-0.012048383
76	0xbd92248c	-0.07135877
77	0xbd273fee	-0.040832452
78	0xbc8f33a9	-0.017480688
79	0xbc9c3b5f	-0.01907128
80	0x3d81f02e	0.06344639
81	0x3da3f153	0.08005013
82	0xbc70a25f	-0.01468715
83	0x3cdccb29	0.026952343
84	0x3d2e3710	0.04253298
85	0x3db52c0b	0.08846291
86	0x3d464755	0.04840787
87	0x3c2efa05	0.0106797265
88	0x3cce0ca1	0.025152506
89	0x3a92e0cc	0.0011205911
90	0x3d9a377e	0.075301155
91	0x3d3eadca	0.046552457
92	0x3ccfa260	0.025345981
93	0xbbbe50bb	-0.0058079637
94	0x3d23bf8e	0.039977603
95	0xbcd023ae	-0.025407638
96	0xbccc6c65	-0.02495403
97	0x3d0c25bb	0.03421567
98	0x3ca0f5a5	0.019648382
99	0xbd61ddbd	-0.055143107
100	0xbce959f3	-0.028485274
101	0x3d32bac5	0.04363515
102	0xbdbe1704	-0.09281734
103	0x3da901cc	0.08252296
104	0xbcd884bc	-0.02643048
105	0xbd308292	-0.04309327
106	0xbca2d8ec	-0.019878827
107	0x3c309dba	0.010779792
108	0x3bceab0c	0.0063070115
109	0x3c741de0	0.014899701
110	0x3d9f62df	0.0778253
111	0x3d96dd3f	0.07366418
112	0xbd28ba31	-0.04119319
113	0x3dddd035	0.10830728
114	0x3d0b6cc6	0.03403928
115	0x3d34b797	0.044120397
116	0xbd7bd845	-0.061485548
117	0x3cac86b9	0.021060335
118	0xbd47b2c9	-0.048754487
119	0x3d726348	0.059176713
120	0xbd300d7c	-0.04298161
121	0xbd045c20	-0.03231442
122	0xbda0fadc	-0.07860348
123	0x3d2016da	0.039084293
124	0xbd0ed5ec	-0.03487198
125	0x3c7a8ca8	0.015292324
126	0x3e289970	0.16464782
127	0x3dd99755	0.106245674
128	0x3dbc2d45	0.09188322
129	0xbcc6562b	-0.02421101
130	0x3d85d206	0.065341994
131	0x3a6b8226	0.0008983932
132	0xbd4b2464	-0.04959525
133	0x3ddf7a2e	0.10911976
134	0x3de06f4b	0.109587274
135	0x3cd14e71	0.0255501
136	0x3d76b38a	0.060229816
137	0x3d83869b	0.06422158
138	0x3ced2a6a	0.028950889
139	0xbccfa37b	-0.025346508
140	0x3dc2cd61	0.09511829
141	0x3cae11e0	0.021248758
142	0x3da6f5fe	0.08152388
143	0x3c87db4b	0.01658406
144	0xbb6c4bf0	-0.0036056004
145	0xbcbdb1bf	-0.023156045
146	0x3d6d4e95	0.05793627
147	0xbaed322f	-0.0018096621
148	0x3dbac246	0.09119086
149	0x3da3a0e5	0.079896726
150	0x3d954291	0.07288087
151	0xbc5127ec	-0.012765866
152	0x3d63bc3a	0.05559943
153	0x3d0df12a	0.03465382
154	0x3c32d91d	0.010916022
155	0x3d7eb61c	0.06218539
156	0xbc9b7b88	-0.018979803
157	0x3d7eefc0	0.062240362
158	0x3ca5edaf	0.020254938
159	0x3d74b2c1	0.059740786
160	0x3d465e1c	0.048429593
161	0x3d1dfa89	0.038569007
162	0x3d9a01e7	0.07519894
163	0xbc099dda	-0.008399451
164	0x3c56496b	0.013079028
165	0xbc83e55d	-0.01610058
166	0xbc28d2f0	-0.010304198
167	0x3d2d6874	0.042335942
168	0xbc25a3b1	-0.010109828
169	0x3cc680ec	0.024231397
170	0x3dd62f47	0.10458236
171	0x3de699bc	0.11259791
172	0x3da41910	0.08012593
173	0x3cefec1d	0.029287392
174	0x3d3c2479	0.04593322
175	0x3d34b0cd	0.044113923
176	0x3cbd3189	0.02309491
177	0x3cd08081	0.0254519
178	0xbd079e40	-0.033109903
179	0x3c59d059	0.013294303
180	0x3d2f1b65	0.042750735
181	0xbc0206f9	-0.007936233
182	0xbcf75156	-0.030190151
183	0x3cd11f4c	0.025527619
184	0x3cc94bc3	0.024572259
185	0x3d5beecc	0.05369453
186	0x3dad94d3	0.084756516
187	0xbccc65e5	-0.02495093
188	0xbd1b3f0c	-0.037901923
189	0x3cf45a37	0.029828174
190	0xbd66b96f	-0.056329187
191	0x3c91f765	0.017818162
192	0x3d94aa4a	0.072590426
193	0x3d2df30e	0.042468123
194	0x3da26b37	0.07930606
195	0xbbee3559	-0.007269543
196	0xbd018cc2	-0.031628378
197	0x3d563344	0.052294984
198	0xbca70eaa	-0.020392735
199	0xbd349958	-0.044091552
200	0xbc80465e	-0.015658554
201	0xbcfd83c3	-0.030946618
202	0x3dacdc42	0.08440448
203	0x3bf97a1d	0.007613434
204	0x3d239ca0	0.03994429
205	0xbded4819	-0.11586017
206	0xbdb43ad4	-0.08800283
207	0xbd51e7f2	-0.05124659
208	0xbce1b7d0	-0.027553469
209	0x3c726525	0.014794623
210	0xbb5aec5d	-0.0033405044
211	0xbcc78b2f	-0.02435836
212	0x3c843df9	0.016142832
213	0xbd568cae	-0.052380256
214	0xbd7d4542	-0.061833628
215	0xbca9b0c7	-0.020714177
216	0xbd702577	-0.05862948
217	0x3c8cd99a	0.017193604
218	0xbc2382ff	-0.009979962
219	0xbd69f42a	-0.05711762
220	0x3dc6b102	0.0970173
221	0x3e1441b8	0.14478195
222	0x3c9721ac	0.018448673
223	0x3d77e310	0.060519278
224	0x3deffc60	0.117180586
225	0x3d88439c	0.066535205
226	0x3a15f28e	0.00057200424
227	0x3b9aaf8a	0.004720633
228	0x3dd55075	0.104157366
229	0x3d38d3c6	0.045123838
230	0x3c3a13c3	0.011357251
231	0xbc5f1da1	-0.013617904
232	0x3bfabc3b	0.0076518334
233	0xbb0afb05	-0.0021206748
234	0x3d236b9b	0.039897542
235	0x3dbd3676	0.09238903
236	0x3db1fb9a	0.08690567
237	0x3c4184dd	0.011811462
238	0xbd86f89e	-0.06590389
239	0xbad75bfe	-0.0016430614
240	0x3e0161d9	0.12634982
241	0x3d817364	0.06320837
242	0x3dad6208	0.084659636
243	0x3dc73f80	0.097289085
244	0x3b56d228	0.0032779071
245	0x3d29f5b5	0.04149409
246	0xbc62975e	-0.013830034
247	0xbd1eacfb	-0.038739186
248	0xbca30b09	-0.019902723
249	0xbc7969c8	-0.015222974
250	0x3d86b5db	0.06577655
251	0xbc40ac3f	-0.011759817
252	0x3b344b36	0.002751065
253	0x3d197e0e	0.03747373
254	0xbc9b0ba2	-0.018926445
255	0xbbd27b01	-0.0064233546

conv_layers.3.bias f4 [64]
0	0xbbbed0b2	-0.0058232183
1	0x3d1144d5	0.035466034
2	0x3c728f83	0.014804724
3	0x3d83bc1f	0.064323656
4	0xbd1a2bc4	-0.037639394
5	0xbcf5dd97	-0.030012889
6	0x3d719e23	0.0589887
7	0xbcd7926e	-0.02631494
8	0xbd6f3ec9	-0.058409486
9	0x3cb20f62	0.02173585
10	0x3d68cb62	0.056834586
11	0xbbdd936f	-0.00676196
12	0x3ca4624f	0.020066408
13	0xbd2be42f	-0.04196566
14	0x3d681af7	0.05666634
15	0x3d54fe02	0.052000053
16	0x3ca72ae9	0.020406203
17	0xbb87f474	-0.004149014
18	0xbd6a1a19	-0.057153795
19	0xbb2db45d	-0.002650521
20	0x3c81b185	0.015831718
21	0x3d8b7a0e	0.068103895
22	0x3d83b18b	0.06430348
23	0x3caa1565	0.020762155
24	0x3d88f568	0.066874325
25	0xbcd4406c	-0.025909625
26	0x3d7cd6fb	0.06172846
27	0x3b3e3325	0.0029022184
28	0xbcbd6ba5	-0.023122618
29	0x3d89cd0c	0.06728563
30	0xbd4028c3	-0.046913873
31	0xbd089d42	-0.033353098
32	0x3d13eefd	0.03611659
33	0x3caaf156	0.020867031
34	0x3d753781	0.059867386
35	0x3c99108f	0.018684654
36	0x3d9b4fe8	0.075836
37	0x3d0905d3	0.03345282
38	0x3d6ff0d0	0.058579266
39	0xbccea85a	-0.02522676
40	0x3c89bdca	0.016814131
41	0x3ce1be3c	0.027556531
42	0xbcee9748	-0.02912487
43	0x3c91afac	0.017783962
44	0xbd003921	-0.031304482
45	0xbc5a10a3	-0.013309631
46	0x3d4155da	0.047201015
47	0x3d403b5d	0.046931613
48	0x3c24c421	0.010056526
49	0xbcaf11d1	-0.0213708
50	0x3d95b39d	0.07309649
51	0x3d0099a2	0.031396516
52	0x3c0d16f0	0.008611426
53	0x3ca9f3bf	0.02074611
54	0x3c51067b	0.012757893
55	0x3cd45822	0.025920931
56	0x3c997ad3	0.018735325
57	0xbd2c7626	-0.042104863
58	0x3d43411f	0.047669526
59	0xbc89a054	-0.016800083
60	0x3c5d63d8	0.013512574
61	0x3da1c8bb	0.078996144
62	0xbcdcf7a2	-0.02697355
63	0xbc494974	-0.012285579

fc1.weight f4 [128, 576]
0	0xbb6e6c6b	-0.003638054
1	0x3bbfd120	0.005853787
2	0xbd01da48	-0.03170231
3	0x3d0b8dd0	0.03407079
4	0x3c505210	0.012714878
5	0xbc26eef0	-0.010188803
6	0x3caa173e	0.020763036
7	0x3c54a310	0.01297833
8	0x3c4bc380	0.012436748
9	0xbc287e96	-0.010284087
10	0xba8a1056	-0.0010533433
11	0xbcb1ec5e	-0.021719154
12	0x3ce45ae8	0.027875379
13	0x3cd98b83	0.026555782
14	0x3cdf1b40	0.027234674
15	0xbcd16f83	-0.025565868
16	0x39a7fe00	0.00032041967
17	0x3cf18616	0.029482882
18	0x3c76f2f2	0.015072571
19	0xbd108854	-0.035286263
20	0xbd17bbfb	-0.037044507
21	0xbd07239f	-0.032992955
22	0xbce15b55	-0.02750937
23	0xbcd6d97b	-0.02622675
24	0xbcc6da2a	-0.02427395
25	0xbcf026d7	-0.029315395
26	0xbc48c25b	-0.012253369
27	0x3c962603	0.018328672
28	0x3d0a3844	0.033745065
29	0x3c1fd0c3	0.0097543625
30	0x3cc2d66b	0.023783883
31	0x3ce3e165	0.027817437
32	0x3bec15e3	0.0072047575
33	0x3c25e524	0.010125432
34	0xbc2af47b	-0.010434265
35	0xbd261792	-0.040549822
36	0xbcc12bbb	-0.023580423
37	0x3cbb13a8	0.022836521
38	0xbd25f22b	-0.040514152
39	0x3c10d620	0.008840114
40	0xbb8ab4b6	-0.004232968
41	0x3c84614e	0.01615968
42	0xbce43820	-0.027858794
43	0xbc54247b	-0.012948151
44	0x3d12c370	0.035830915
45	0xbd285cb3	-0.04110403
46	0xbcd96ddb	-0.026541641
47	0x3c15d230	0.009144351
48	0xbc9a1898	-0.018810555
49	0xbcf29193	-0.02961043
50	0x3b384a6d	0.0028120533
51	0xbca6b06b	-0.020347795
52	0x3d222317	0.039584246
53	0xbd0716c8	-0.03298071
54	0x3cb84fa3	0.022498911
55	0x3c2684bb	0.010163481
56	0x3c751ac0	0.014959991
57	0xbccfbd1e	-0.025358733
58	0x3cf354f0	0.029703587
59	0x3cd9dc03	0.026594168
60	0x3cac0cf8	0.021002278
61	0xbd1818d3	-0.03713305
62	0xbc6833d6	-0.014172515
63	0x3c83343a	0.016016115
64	0xbc8ae852	-0.016956482
65	0xbd09c728	-0.033637196
66	0xbcc7eee3	-0.024405902
67	0xbd2aebfc	-0.04172896
68	0x3b832bc0	0.004003018
69	0x3b7f579e	0.0038962136
70	0x3c9bc8a3	0.01901657
71	0xbb497396	-0.003073906
72	0x3c9b1a56	0.018933456
73	0xbd207613	-0.039175104
74	0x3d1d9da0	0.0384804
75	0x3ca1ed3b	0.01976644
76	0x3ce8fb53	0.028440153
77	0xbcad1d38	-0.021132097
78	0xbc973d40	-0.018461823
79	0xbcbb6a2b	-0.022877773
80	0xbc890603	-0.0167265
81	0x3a15ea06	0.0005718771
82	0xbcceb1f4	-0.025231339
83	0x3c47e154	0.0121997185
84	0xbc054551	-0.008134202
85	0xbd265dae	-0.040616684
86	0xbc43cc36	-0.011950543
87	0xbcf7d6e8	-0.030253842
88	0xbc86c338	-0.01645051
89	0xbc4d7ff6	-0.012542715
90	0xbd33625e	-0.043794982
91	0xba837a2f	-0.001003092
92	0x3c280c44	0.010256831
93	0xbc9b40e6	-0.018951844
94	0xbc880c29	-0.01660736
95	0x3bac5319	0.0052589295
96	0xbb075c93	-0.0020654544
97	0xbd19f342	-0.037585504
98	0xbd323809	-0.04351047
99	0x3ae44c72	0.0017417802
100	0xbb5b6117	-0.0033474618
101	0xbab19c24	-0.0013550562
102	0xbb06759b	-0.0020516876
103	0xbc34630d	-0.011009944
104	0xbd3b5250	-0.045732796
105	0x3cc8d577	0.02451585
106	0xbb2379cc	-0.0024944423
107	0xbd21f5c1	-0.03954101
108	0x3ac421c9	0.0014963682
109	0xbc1f2a94	-0.009714741
110	0xb9e3e2b1	-0.00043465712
111	0xbc431796	-0.011907479
112	0x3a9cc152	0.0011959469
113	0xbbed503b	-0.00724223
114	0xbd45c55a	-0.048283912
115	0xbc972f85	-0.018455276
116	0xbcdef69a	-0.027217198
117	0xbcd3b179	-0.025841461
118	0x3b4ba43f	0.003107324
119	0xbc9ba69b	-0.019000342
120	0xbc94cbd8	-0.018163607
121	0xbd15bbea	-0.036556162
122	0x3ce15a27	0.027508808
123	0xbd34bce8	-0.044125468
124	0xbc446696	-0.011987349
125	0xbb5cd083	-0.0033693619
126	0xbc77ee9c	-0.0151325725
127	0xbd361545	-0.044453878
128	0xbc976b38	-0.018483743
129	0x3c25f12f	0.010128303
130	0xbd294fe9	-0.041335974
131	0xb9e64b59	-0.00043925157
132	0x3ca13fe6	0.01968379
133	0xbd390c10	-0.04517752
134	0x3c604853	0.013689118
135	0xbd19bf4b	-0.037535947
136	0xbd377cc0	-0.044796705
137	0x3c835b87	0.016034855
138	0xbd41a399	-0.04727516
139	0x3cef5e52	0.02921978
140	0xbd31905b	-0.04335056
141	0xbbd0c925	-0.0063716345
142	0xbab4fb4e	-0.0013807805
143	0x3bb1bf72	0.0054244334
144	0xbc95f44a	-0.018304963
145	0x3b810756	0.003937642
146	0xbce75a9a	-0.028241444
147	0x3cfa16f7	0.030528529
148	0x3a8bb09f	0.0010657496
149	0x3cd9b78b	0.026576778
150	0xbccd863d	-0.025088424
151	0x3c2ad85e	0.0104275625
152	0xbcfaaa5a	-0.030598808
153	0x3cc2db80	0.023786306
154	0xbd0b0277	-0.033937898
155	0x3c8523ed	0.016252482
156	0xbc23f098	-0.0100060925
157	0x3c2e956b	0.010655741
158	0xbac4d2d6	-0.0015016447
159	0x3cd1c358	0.025605842
160	0x3cbd58de	0.023113664
161	0x3b9e6b60	0.0048345774
162	0xbcff7d04	-0.031187542
163	0x3c111b87	0.008856661
164	0x3cf108ad	0.029423082
165	0xbd43cb85	-0.047801513
166	0xbcffcfd2	-0.031227026
167	0x3bdf8ce2	0.0068222145
168	0xbc97ead2	-0.018544588
169	0x3c908a13	0.017643964
170	0x3cac15e6	0.021006536
171	0xbcd3fd35	-0.025877574
172	0x3c85a16d	0.016312325
173	0xbbfc0fb3	-0.007692301
174	0xbc14bb42	-0.009077849
175	0xbbf28b9b	-0.007401896
176	0xbd0f241b	-0.034946542
177	0xbd0a3d0e	-0.033749633
178	0x3c9f183a	0.019420732
179	0xbd11d321	-0.03560174
180	0xbc9af243	-0.018914348
181	0x3caa79ed	0.020810092
182	0x3c8f06f4	0.01745937
183	0xbbe262d4	-0.006908754
184	0xbd39a58d	-0.045323897
185	0xbd418666	-0.047247313
186	0x3cacf695	0.021113673
187	0x3bcab434	0.0061860327
188	0xbcf4a728	-0.029864863
189	0x3c64374a	0.013929198
190	0xbc8a259c	-0.016863637
191	0xbc876477	-0.016527398
192	0xbcfd5efd	-0.030929083
193	0xbc6a90cd	-0.01431675
194	0x3cdfef48	0.027335778
195	0xbca8b4c7	-0.020594014
196	0xbcce107a	-0.025154341
197	0xbcb737be	-0.022365447
198	0x3acc1fe9	0.0015573475
199	0x3ce5d78e	0.028056886
200	0x3ca7c519	0.020479726
201	0xbbe3198f	-0.006930537
202	0x3c7c5493	0.015401023
203	0xbc30ef49	-0.0107992375
204	0x3ccc737b	0.02495741
205	0xbaa54728	-0.0012609707
206	0xbc23b2b0	-0.009991333
207	0xbd132689	-0.035925422
208	0x3cd77285	0.026299724
209	0xbcddc17c	-0.0270698
210	0x3c75a780	0.014993548
211	0xbd0ed1c7	-0.034868028
212	0x3d107e58	0.03527674
213	0x3cbe40e6	0.023224305
214	0x3d100516	0.0351611
215	0xbbead6cb	-0.0071667186
216	0xbcbc3924	-0.022976466
217	0x3cd04fab	0.025428614
218	0x3d0146fb	0.031561833
219	0xbd10aa78	-0.03531882
220	0xbcad3607	-0.021143926
221	0xbd39bdab	-0.045346897
222	0xbd0648c9	-0.032784257
223	0x3c1992ef	0.009373411
224	0x3b2f1f2e	0.0026721465
225	0xbc82c9ad	-0.015965307
226	0xbd3f7dfa	-0.046751
227	0xbd18c82b	-0.03730027
228	0xbb7fa45b	-0.0039007876
229	0x3ce17949	0.027523654
230	0xbcbe5cf6	-0.023237687
231	0x3c80b3e1	0.015710773
232	0x3c74b5b7	0.014935902
233	0xbce5a13d	-0.028030986
234	0xbd1549e9	-0.03644744
235	0xbd13a1f3	-0.03604312
236	0x3bbd4742	0.005776317
237	0x3b883da8	0.0041577406
238	0xbc87c948	-0.01657547
239	0x3cd7dfc3	0.026351815
240	0x3c365040	0.0111275315
241	0xbc5961be	-0.013267932
242	0xbcedec83	-0.029043442
243	0xbd13ebf4	-0.036113694
244	0xbcc5b20d	-0.024132753
245	0x3b83a4b8	0.0040174387
246	0x3ce6c929	0.028172093
247	0xbd174292	-0.03692872
248	0x3cd8994a	0.026440281
249	0x3cca48b8	0.024692878
250	0xbc884e4e	-0.016638901
251	0xbc93ee4c	-0.018057965
252	0xbd1dad1e	-0.038495176
253	0xbd377c36	-0.04479619
254	0xbd06c341	-0.032901052
255	0xbd0824c5	-0.03323819

fc1.bias f4 [128]
0	0xbca5e061	-0.020248594
1	0xbd055e18	-0.032560438
2	0x3cb3abcf	0.02193251
3	0x3d566dab	0.05235068
4	0xbcf6cb18	-0.03012614
5	0xbcfa3f01	-0.03054762
6	0xbc799a78	-0.015234582
7	0x3cf8d644	0.030375607
8	0xbc8b4c97	-0.017004294
9	0xbc007e9a	-0.007842684
10	0x3cd68c69	0.02619
11	0xbb94bbd8	-0.0045389943
12	0x3d7c49af	0.061593708
13	0x3d6a45ac	0.05719535
14	0x3ce7c63e	0.028292771
15	0xbd290829	-0.041267548
16	0x3c2f7f77	0.010711542
17	0x3d7b7958	0.06139502
18	0xbbdd8d20	-0.006761208
19	0x3d4d2ea0	0.050093293
20	0xbd22c675	-0.039740045
21	0x3c80dea0	0.015731156
22	0xbca491dc	-0.020089082
23	0x3c8c725a	0.01714437
24	0xbd1ff323	-0.039050233
25	0xbd026106	-0.03183081
26	0x3c6add86	0.014335042
27	0x3d19fcd8	0.037594646
28	0x3d23bbbc	0.03997396
29	0xbcec424d	-0.028840208
30	0xbd225540	-0.039632082
31	0x3cf30c36	0.029668909
32	0xbccb3d71	-0.024809571
33	0x3c87ab1c	0.016561083
34	0x3c833571	0.016016694
35	0xbcdd87ca	-0.027042288
36	0x3caca5c0	0.02107513
37	0x3d75a87e	0.05997514
38	0xbcc1c440	-0.02365315
39	0x3d17cd11	0.0370608
40	0x3c3bfae6	0.011473393
41	0xbb034fa4	-0.0020036483
42	0x3c128a68	0.008944131
43	0xbc24f138	-0.010067277
44	0x3d4bd4f3	0.04976363
45	0xbb456a5f	-0.0030123217
46	0x3d7c30e3	0.06157006
47	0x3a2b24b8	0.0006528604
48	0xbcbe0e04	-0.023200043
49	0xbc4302a6	-0.011902487
50	0xbce048ed	-0.027378524
51	0xbceab914	-0.028652705
52	0xbc6befcb	-0.014400433
53	0x3c2d4c75	0.010577311
54	0xbd0057ee	-0.031333856
55	0x3cc51fc3	0.024062997
56	0x3baf2f03	0.0053461804
57	0x3c8f6e18	0.017508551
58	0xbca1fa59	-0.019772695
59	0x3d5b3b9f	0.053523656
60	0x3c49f344	0.012326065
61	0xbc0357a8	-0.008016504
62	0x3d27b4d4	0.040943936
63	0x3c9b4227	0.018952442
64	0x3cf0e69e	0.029406842
65	0x3b89111b	0.0041829473
66	0xbc653206	-0.013988977
67	0xbcaf3c8f	-0.021391181
68	0x3c77d914	0.015127439
69	0x3d1180bb	0.035523158
70	0x3d3a953f	0.04555249
71	0xbb89c5ae	-0.0042044735
72	0x3bfa4fca	0.007638906
73	0x3d90b087	0.0706492
74	0x3c400876	0.011720767
75	0xbc8ce139	-0.017197238
76	0x3d002fb5	0.031295497
77	0x3d65a238	0.056062907
78	0x3d63e7c9	0.05564097
79	0x3c421c83	0.011847618
80	0x3d4f26cd	0.050574113
81	0x3d320f5c	0.04347168
82	0x3d865fcc	0.065612406
83	0x3c0e3f35	0.008682062
84	0xbd4114b5	-0.04713889
85	0xbccc4c57	-0.024938745
86	0xbc52623b	-0.012840803
87	0x3d85e76a	0.06538279
88	0x3cd2f097	0.025749488
89	0x3d6b6ccc	0.057476804
90	0x3d803bca	0.06261404
91	0x3b2690be	0.0025415863
92	0x3c44ab0c	0.012003671
93	0x3c1547de	0.009111373
94	0x3cfa1b81	0.030530693
95	0x3d634ec8	0.055495054
96	0x3d4c3348	0.049853593
97	0x3cc56a88	0.02409865
98	0x3c37e6d1	0.0112244645
99	0x3cef4a01	0.029210092
100	0x3d394ed3	0.04524119
101	0x3d24d038	0.040237635
102	0xbd0cdb21	-0.034388665
103	0xbd35732a	-0.044299282
104	0x3d4e9627	0.050436165
105	0x3c8df5c1	0.017329099
106	0x3c35add6	0.011088809
107	0x3bef87b4	0.0073098782
108	0x3b198893	0.0023427352
109	0xbcde2b8e	-0.027120378
110	0xbbd36ceb	-0.006452193
111	0x3d464063	0.048401248
112	0x3d88d218	0.06680697
113	0xbcc41145	-0.023934016
114	0x3c4b68bc	0.012415107
115	0xbd2e5e2e	-0.042570285
116	0x3d5a9477	0.053364243
117	0x3cc41d24	0.023939677
118	0xbca9324f	-0.020653872
119	0xbd318cc8	-0.04334715
120	0x3d671d0e	0.056424193
121	0x3c79c4fb	0.015244718
122	0x3b6299f9	0.0034576638
123	0xbc998e84	-0.018744715
124	0xbd177d19	-0.036984537
125	0xbac58753	-0.0015070237
126	0xbcd95232	-0.026528452
127	0xbc90eabc	-0.017690055

fc2.weight f4 [1, 128]
0	0xbd910e89	-0.070828505
1	0xbd201025	-0.039077897
2	0x3dc855d7	0.09781998
3	0xbd931bf8	-0.07183069
4	0x3da07b68	0.07836038
5	0xbab77278	-0.0013995906
6	0xbe104f31	-0.14092709
7	0x3e19b901	0.1501198
8	0xbd64a8da	-0.055825092
9	0x3dbc8b16	0.09206216
10	0x3e12f25f	0.1435027
11	0x3d9632cd	0.07333908
12	0xbe018560	-0.12648535
13	0xbde6bbaa	-0.11266263
14	0x3c0728f9	0.008249515
15	0x3e444d80	0.19170189
16	0xbdc24daf	-0.09487473
17	0xbe0d8e04	-0.13823706
18	0x3dc2a04f	0.09503233
19	0xbda60903	-0.081071876
20	0x3bf7f011	0.00756646
21	0x3dfa5e9d	0.12225077
22	0x3dc69a31	0.096973784
23	0x3dacb7cc	0.08433494
24	0xbda38f03	-0.07986262
25	0x3a67c8a8	0.0008841851
26	0x3db238a9	0.08702213
27	0xbe04861f	-0.12941788
28	0xbe19493b	-0.14969341
29	0x38e1dd63	0.000107700725
30	0x3ddd4d29	0.10805733
31	0x3dbacd4c	0.091211885
32	0xbd8cda93	-0.06877627
33	0x3e0ee2e7	0.13953744
34	0x3ddffc16	0.109367535
35	0xbd467a16	-0.048456274
36	0x3e232166	0.15930709
37	0xbda05075	-0.07827846
38	0xbd3be9ef	-0.045877393
39	0xbddebc1b	-0.10875722
40	0x3d81d2de	0.06339048
41	0x3dff3d3f	0.12462854
42	0x3dd06f56	0.10177486
43	0x3d508a60	0.050913215
44	0xbe124242	-0.14283088
45	0x3cc379f6	0.023861866
46	0xbdea5ff5	-0.114440836
47	0x3b3df557	0.0028985345
48	0xbc595aba	-0.01326626
49	0xbd8ba037	-0.06817668
50	0x3e0dc7a3	0.13845687
51	0x3dcca165	0.09991721
52	0xbd9d40fe	-0.07678412
53	0x3dae52f4	0.08511916
54	0x3d9c2120	0.076235056
55	0xbdafb5f2	-0.08579625
56	0x3e1f1848	0.15536606
57	0x3db8f7e1	0.09031654
58	0xbddd34f2	-0.10801114
59	0xbde4ba53	-0.11168351
60	0x3db213dc	0.08695194
61	0xbd8fba5f	-0.07017969
62	0xbe2005d4	-0.15627223
63	0x3de65078	0.11245817
64	0x3dc25054	0.094879776
65	0x3dc36d20	0.09542298
66	0x3abb9aaf	0.0014313067
67	0xbd0a15c2	-0.033712156
68	0x3de0fa06	0.10985188
69	0xbdc422fa	-0.09576984
70	0xbdf194c1	-0.11795951
71	0x3dc86b5e	0.09786104
72	0x3e1057ec	0.1409604
73	0xbdbca209	-0.09210593
74	0x3db283fc	0.0871658
75	0x3de3e2c5	0.11127237
76	0x3dda4276	0.10657208
77	0xbde8978e	-0.11357032
78	0xbdfa7df8	-0.12231058
79	0xbd23af15	-0.039961893
80	0xbe12cf5d	-0.14336915
81	0xbe182ee6	-0.1486164
82	0xbddf5b96	-0.109061405
83	0x3e1555df	0.14583538
84	0xbd4e2512	-0.05032832
85	0xbcdaf285	-0.02672697
86	0x3d113068	0.035446554
87	0xbe0d1ead	-0.13781233
88	0x3ddced8d	0.10787497
89	0xbdf35c04	-0.11882785
90	0xbde9a153	-0.11407723
91	0x3dabb248	0.08383614
92	0x3aa585ab	0.0012628337
93	0xbda3568a	-0.079754904
94	0x3d91cf03	0.071195625
95	0xbe15b732	-0.14620665
96	0xbe0ea0df	-0.13928555
97	0x3dd93455	0.10605685
98	0x3da91aa0	0.082570314
99	0x3e202b31	0.15641476
100	0xbe192ca5	-0.14958437
101	0xbe157e75	-0.14599021
102	0x3e167585	0.14693268
103	0x3e0af2e3	0.13569216
104	0xbe1415eb	-0.14461486
105	0x3d94fcdc	0.072747916
106	0xbdd5fca4	-0.10448578
107	0x3e09067e	0.13381383
108	0x3e1475fc	0.14498132
109	0x3d9cff5c	0.076658934
110	0x3e0665df	0.13124798
111	0xbda4de05	-0.08050159
112	0xbe03eb5e	-0.12882754
113	0xbdcbd5ca	-0.099528864
114	0x3e20798a	0.15671363
115	0x3d93c74d	0.07215748
116	0xbe0eb9a2	-0.13938001
117	0x3e1a2308	0.15052426
118	0xbe417b0c	-0.18894595
119	0xbd06a9b7	-0.032876696
120	0xbde2f75c	-0.11082336
121	0xbd8f55e7	-0.069988064
122	0xbd2e2fed	-0.042526174
123	0xbcf90bea	-0.030401189
124	0x3e6e6bcc	0.23283309
125	0xbd8d5c91	-0.06902421
126	0xbd802fa3	-0.06259086
127	0x3e59009d	0.2119164
