models/baselines/convolution_baseline/13_09/model_64_5_2_256_0.pt (torch, 407492 bytes, 7 tensors)

conv_layers.0.weight f4 [64, 20, 5]
-0.020421665 -0.030045457 0.06670916 -0.118896626 0.016757745 -0.08123695 -0.1283263 0.009241919
0.061501823 -0.0913263 0.019314444 -0.06280859 0.031051705 0.08041943 -0.015951412 0.055160712
-0.027723461 -0.027212597 0.067548625 -0.008371368 0.017130585 0.0026696466 0.091022335 0.09289067
-0.05332247 0.013158312 -0.16803783 -0.082351424 -0.034379613 -0.0209474 -0.010782269 0.045416504
-0.03691192 0.09066588 -0.12947749 -0.030462984 -0.12986161 -0.07914288 0.009598989 0.054718778
0.010239117 0.09101454 0.029021315 -0.04435125 -0.08544981 -0.14149956 -0.035394184 -0.11740603
-0.04240187 -0.04645711 -0.07723735 -0.053742066 -0.01844931 -0.001353309 0.039781205 0.06607977
-0.015035262 -0.011080954 -0.054702863 0.062123682 -0.11817298 -0.05209783 0.014211553 -0.13697074
-0.13744073 0.007473976 -0.063447855 -0.1537564 0.02081875 -0.04245689 0.08575954 0.021802668
0.08521664 0.07746034 -0.00057473226 -0.03693852 0.042523015 -0.012786112 -0.04354601 -0.057464033
0.00930988 0.02662797 -0.017639477 0.0733318 0.037950095 0.014217325 -0.005086257 0.05083957
-0.11440982 0.1175379 0.0009306988 0.076885894 -0.06022783 0.021404365 -0.119207695 0.0955945
-0.001620866 0.04985145 -0.073406406 0.036783345 0.019907106 -0.060923003 0.0031972295 -0.045884006
-0.012789767 -0.061315976 0.041550647 -0.15971996 -0.04172846 0.06267298 0.054521438 -0.09334539
0.02536751 0.08551282 -0.0042648255 -0.027001318 -0.10190217 -0.0046454193 0.01735159 -0.021466106
-0.011510375 -0.051463824 0.08093016 0.0070547247 0.07456658 -0.040562063 0.004208646 0.0116704665
0.031307157 0.044175602 0.043734085 0.08775373 -0.089232676 0.10329782 -0.060006473 -0.043327108
-0.05494905 0.056697797 0.08429339 -0.025647108 0.11238527 0.04871503 -0.09104746 0.12418287
0.096396826 0.0869763 0.073884785 -0.02929373 0.10390249 -0.012630141 0.07617547 -0.0658303
-0.09931689 -0.0013108227 0.06957963 -0.08363086 0.01033202 -0.050513178 0.09285415 0.0075551295
-0.13972513 -0.11629915 -0.12025182 0.10378413 0.0904529 0.05101186 -0.0791655 0.11381689
-0.14592527 -0.037942097 -0.028226413 0.1276411 -0.063726924 0.11155809 -0.03583012 -0.056508616
0.050829455 -0.12292011 0.06985615 -0.097472824 0.032192443 0.04160205 -0.0118672075 -0.06670143
0.0047901967 0.024408357 -0.08128087 -0.0045800856 -0.03567571 -0.007682757 -0.11293506 -0.14893842
0.06475105 0.0056220093 0.013609572 0.03231212 -0.058373537 -0.1395598 0.05607163 -0.050386123
-0.009487638 -0.040895812 0.034848377 -0.012455387 0.07604658 0.07437814 0.052712888 -0.053793523
-0.12330352 0.04993618 -0.03415774 0.01903622 -0.03418903 0.061197028 0.08201332 -0.17513822
0.019777447 -0.07391467 0.035780113 -0.017690683 -0.16014609 -0.019996105 -0.024498124 -0.100390494
-0.04239361 0.029952811 -0.12815443 -0.10596756 -0.11114072 -0.16104269 0.09145621 -0.10603514
0.07746878 0.0558262 -0.08429964 -0.048456877 0.048554864 0.08342167 -0.1694429 -0.11529851
0.041649196 0.06547559 0.05651337 -0.037784837 -0.0464583 0.15217355 0.029214717 -0.024608908
-0.037705533 -0.053744193 0.07445666 -0.04271781 0.017813496 -0.13415845 0.010614381 0.003872737
00000000: 564b a7bc e421 f6bc d09e 883d 1380 f3bd
00000010: 8a47 893c 8f5f a6bd f867 03be 6b6b 173c
00000020: 56e9 7b3d 4809 bbbd 5339 9e3c caa1 80bd
00000030: 2560 fe3c f1b2 a43d 89ac 82bc 33f0 613d
00000040: 501c e3bc f4ec debc ef56 8a3d 1028 09bc
00000050: 7155 8c3c 3df5 2e3b eb69 ba3d 773d be3d
00000060: aa68 5abd f695 573c 1c12 2cbe dda7 a8bd
00000070: a3d1 0cbd e299 abbc 1da8 30bc a806 3a3d
00000080: f430 17bd 08af b93d bf95 04be 828d f9bc
00000090: 71fa 04be aa15 a2bd 1445 1d3c cc20 603d
000000a0: f8c1 273c d565 ba3d 1cbe ed3c a8a9 35bd
000000b0: 4f00 afbd 43e5 10be 7ef9 10bd 9372 f0bd
000000c0: 95ad 2dbd d049 3ebd 9e2e 9ebd a420 5cbd
000000d0: 0223 97bc 8461 b1ba 9ef1 223d d554 873d
000000e0: 7656 76bc e48c 35bc 1c10 60bd 6775 7e3d
000000f0: ad04 f2bd 8964 55bd 93d7 683c 0f42 0cbe
00000100: 43bd 0cbe 41e8 f43b f3f0 81bd 5172 1dbe
00000110: 158c aa3c 47e7 2dbd b3a2 af3d 829b b23c
00000120: 1086 ae3d 87a3 9e3d a1a9 16ba d84c 17bd
00000130: 9d2c 2e3d d77c 51bc 4d5d 32bd 685f 6bbd
00000140: 7888 183c e722 da3c aa80 90bc fc2e 963d
00000150: 8f71 1b3d c8ef 683c 9eaa a6bb 273d 503d
00000160: b24f eabd b6b7 f03d 24fa 733a 5a76 9d3d
00000170: 75b1 76bd 3558 af3c 2a23 f4bd 0dc7 c33d
00000180: 3d73 d4ba 0931 4c3d 1956 96bd 22aa 163d
00000190: 3a14 a33c 668a 79bd 9c88 513b def0 3bbd
000001a0: 2c8c 51bc 7626 7bbd 0331 2a3d a18d 23be
000001b0: 76eb 2abd b15a 803d df51 5f3d de2b bfbd
000001c0: 86cf cf3c 5821 af3d f3bf 8bbb de31 ddbc
000001d0: 16b2 d0bd 9a38 98bb ec24 8e3c b0d9 afbc
000001e0: 0396 3cbc bbcb 52bd b6be a53d 522b e73b
000001f0: 5db6 983d 6824 26bd aee8 893b 7c35 3f3c
00000200: ef3b 003d 7af1 343d 8322 333d 3ab8 b33d
00000210: 9fbf b6bd cf8d d33d 59c9 75bd c477 31bd
00000220: 4112 61bd f33b 683d 03a2 ac3d e219 d2bc
00000230: 402a e63d 6989 473d 1777 babd 9753 fe3d
00000240: b36b c53d a120 b23d e850 973d 68f9 efbc
00000250: d4ca d43d a7ee 4ebc e301 9c3d 09d2 86bd
00000260: a766 cbbd e9cf abba c47f 8e3d a846 abbd
00000270: a247 293c e8e6 4ebd 512a be3d 0591 f73b
00000280: 1b14 0fbe 402e eebd 9646 f6bd c68c d43d
00000290: 5f3f b93d d0f1 503d 8621 a2bd d418 e93d
000002a0: 6f6d 15be 2c69 1bbd 143b e7bc 59b4 023e
000002b0: 4383 82bd 9178 e43d 9bc2 12bd 9475 67bd
000002c0: 8c32 503d 8abd fbbd be10 8f3d d59f c7bd
000002d0: 39dc 033d e966 2a3d ad6e 42bc c29a 88bd
000002e0: 15f7 9c3b 09f4 c73c 9676 a6bd 8b14 96bb
000002f0: b120 12bd a3bf fbbb 7f4a e7bd 5083 18be
00000300: 339c 843d d538 b83b affa 5e3c b759 043d
00000310: 1719 6fbd c4e8 0ebe 5eab 653d ae61 4ebd
00000320: 0a72 1bbc 5e82 27bd 2cbd 0e3d ae11 4cbc
00000330: 4fbe 9b3d 9153 983d 78e9 573d 9956 5cbd
00000340: 8e86 fcbd e189 4c3d fde8 0bbd d9f1 9b3c
00000350: cc09 0cbd bca9 7a3d 99f6 a73d 6f57 33be
00000360: 5004 a23c 9360 97bd 2b8e 123d 0dec 90bc
00000370: 56fd 23be dfce a3bc 4ab0 c8bc 8899 cdbd
00000380: eca4 2dbd 995f f53c ea3a 03be 8505 d9bd
00000390: bf9d e3bd 60e8 24be 654d bb3d f428 d9bd
000003a0: f4a7 9e3d 03aa 643d 4aa5 acbd b87a 46bd
000003b0: 77e1 463d fbd8 aa3d 7182 2dbe a021 ecbd
000003c0: 5998 2a3d 1118 863d 907a 673d 46c4 1abd
000003d0: 0f4b 3ebd 62d3 1b3e b453 ef3c 9f98 c9bc
000003e0: 1e71 1abd df22 5cbd bc7c 983d dff8 2ebd
000003f0: 9ced 913c d560 09be f1e7 2d3c bfcd 7d3b

conv_layers.0.bias f4 [64]
-0.014821725 -0.03225813 0.0073587466 0.07572652 0.010969681 0.052124053 0.10137765 -0.03065917
0.007866101 0.06887584 0.07203415 0.10773226 -0.04860615 0.029676916 -0.023680963 0.06591788
-0.03532539 0.029613659 0.0510599 0.047595296 0.014304896 0.10519425 -0.046686925 0.03666456
-0.06965122 -0.056807365 0.0031164465 -0.08445977 -0.01696851 -0.01870947 0.104364105 0.05908753
0.027768133 0.10279548 0.08751481 0.09139451 0.08005253 0.041083347 0.01915244 0.03188488
-0.05042733 -0.009253761 -0.041499782 0.024594087 -0.006512471 -0.01153693 0.04235557 -0.052071024
0.009317376 -0.00019883855 0.042782646 -0.0088596335 -0.05504557 -0.017346201 0.009949138 -0.021226455
0.045013033 -0.023936981 0.10054795 -0.07182361 0.06726575 0.089056246 0.010457799 -0.0353001
00000000: d2d6 72bc 1a21 04bd a421 f13b 8116 9b3d
00000010: 2dba 333c 0880 553d 169f cf3d f128 fbbc
00000020: d2e0 003c c70e 8d3d a486 933d bba2 dc3d
00000030: 3e17 47bd 011d f33c 94fe c1bc f4ff 863d
00000040: 5bb1 10bd 5898 f23c 3024 513d 49f3 423d
00000050: 155f 6a3c 1570 d73d ca3a 3fbd 942d 163d
00000060: 4da5 8ebd d7ae 68bd 4c3d 4c3b 3ef9 acbd
00000070: 8b01 8bbc 9a44 99bc d9bc d53d c405 723d
00000080: ff79 e33c 7086 d23d f73a b33d 0b2d bb3d
00000090: 95f2 a33d 0347 283d 94e5 9c3c b899 023d
000000a0: e38c 4ebd 169d 17bc adfb 29bd 8a79 c93c
000000b0: 9166 d5bb 6405 3dbc 097d 2d3d 6d48 55bd
000000c0: e8a7 183c 517f 50b9 db3c 2f3d ff27 11bc
000000d0: 7777 61bd 9f19 8ebc b601 233c 1ae3 adbc
000000e0: 965f 383d 7d17 c4bc 15ec cd3d 4218 93bd
000000f0: a0c2 893d 1f63 b63d 3057 2b3c d696 10bd

conv_layers.3.weight f4 [64, 64, 5]
0.026111638 -0.056905523 -0.052990593 0.042709984 -0.0050581438 0.0025446366 -0.013452982 -0.045408875
0.02396874 -0.012994352 0.0061941133 0.03621958 0.043349363 0.007866358 0.04962711 -0.06096556
0.025594803 0.04415453 -0.039244585 -0.02667336 0.03535615 0.02651357 -0.008185528 0.03562969
-0.008396382 -0.046980023 0.017681045 -0.0042696916 -0.017616907 -0.0062798336 -0.013859893 0.045299552
0.0214573 0.017938422 -0.024181947 0.028025128 0.058681667 -0.060322955 0.030249238 -0.023987634
-0.060079016 -0.031855978 -0.03803307 -0.030779636 -0.052965224 -0.038424168 -0.04629711 -0.02209564
-0.030254455 0.04657927 0.039574925 0.047553774 -0.060261622 -0.061943274 0.042074494 -0.0070081153
-0.022926934 -0.05825468 0.022637604 0.014746988 0.0037618973 -0.019474983 -0.021318244 -0.05441307
0.036233544 0.053741157 0.0127591025 -0.014414258 -0.01553543 0.009256578 0.01871854 -0.0065131243
-0.03275343 0.0048269937 0.021744587 0.05527985 0.035848524 -0.061249282 0.026079824 -0.008504672
0.0062084785 -0.043760568 0.056573674 -0.052535877 0.05131877 0.009066057 -0.03230312 -0.053970113
-0.028216064 0.01184456 0.042253863 0.042468276 0.045171726 -0.0044256365 -0.049283974 -0.05709486
-0.029758416 0.021681594 0.026806867 -0.06305034 0.024748266 -0.050599728 -0.045449506 0.052061487
-0.032473855 -0.04830733 -0.062186994 0.020715026 -0.020871831 -0.037249677 0.04339526 0.03324676
-0.057552155 0.044617765 -0.02837953 0.023282614 0.02206383 -0.043136306 0.029389035 -0.057347342
-0.038210243 0.05916679 0.017038343 0.05519745 -0.039247602 0.047134563 -0.02318818 -0.04159902
0.017047668 0.03595184 0.023631886 0.039667077 0.030903533 0.010516418 0.0079007195 -0.009670678
0.015759718 0.0051690685 0.00828093 -0.041424505 0.019549228 0.02136178 -0.06391219 0.02233933
-0.058771618 -0.0027236254 0.04040904 -0.04266649 0.0005714113 -0.019098355 0.0037718308 0.0074742385
-0.00015079138 -0.04067153 -0.035738826 -0.025334781 0.03149268 0.004332044 0.03909782 -0.055203475
-0.018881623 0.0076313745 -0.046887144 0.039356373 0.013150381 -0.012443345 -0.012215297 -0.04835433
-0.025346465 0.013689852 -0.05757064 0.011875966 -0.016600149 0.02257759 0.02977699 -0.022851165
0.0024578548 -0.043137997 -0.042389903 -0.05072176 -0.004422958 0.036877573 -0.007016831 -0.032420643
-0.028476149 0.014315588 -0.016029606 -0.050133523 0.017690033 -0.045314427 -0.0061353426 0.02594402
0.034793686 0.012310791 0.0019967433 -0.026726406 0.031813513 -0.041684885 -0.056264564 -0.04748711
0.01952495 -0.038415868 0.037097294 -0.011290787 -0.035545595 0.0037278687 0.014673909 0.015551146
0.0379439 -0.007771174 0.0072852187 -0.015223388 0.03620208 -0.035194006 -0.02038388 -0.008270002
-0.016123142 -0.02183022 -0.02073798 -0.01071649 -0.03231926 0.0010469514 -0.00066508277 -0.025307266
-0.007850803 -0.037780337 -0.05183457 0.0038064902 0.028601678 0.0467027 -0.06237349 -0.033037767
0.004854915 -0.027286533 0.049817033 -0.015917968 -0.061465602 -0.019537132 0.041545104 -0.0546115
0.019713787 -0.040590867 0.022816155 -0.019465378 -0.0015232236 -0.054561757 -0.028832395 -0.012450977
-0.008953638 -0.042136803 0.021478193 -0.037703328 -0.0040809284 -0.060434535 -0.03330452 -0.051626034
00000000: 13e8 d53c c415 69bd aa0c 59bd aaf0 2e3d
00000010: c9be a5bb ebc3 263b e569 5cbc a8fe 39bd
00000020: 175a c43c 43e6 54bc fdf7 ca3b fb5a 143d
00000030: 1a8f 313d e6e1 003c cc45 4b3d 06b7 79bd
00000040: 31ac d13c 61db 343d eebe 20bd 1782 dabc
00000050: 9cd1 103d fd32 d93c 981c 06bc 70f0 113d
00000060: fb90 09bc 206e 40bd d7d7 903c c5e8 8bbb
00000070: 5551 90bc 10c7 cdbb 9b14 63bc 068c 393d
00000080: 38c7 af3c 99f3 923c 3819 c6bc f494 e53c
00000090: 305c 703d 3415 77bd 40cd f73c b781 c4bc
000000a0: 6a15 76bd 6a7b 02bd 90c8 1bbd 9325 fcbc
000000b0: 10f2 58bd a962 1dbd 0aa2 3dbd ea01 b5bc
000000c0: 31d8 f7bc e8c9 3e3d 5119 223d bfc7 423d
000000d0: e4d4 76bd 3bb8 7dbd 4e56 2c3d 55a4 e5bb
000000e0: 44d1 bbbc 769c 6ebd 7f72 b93c 5a9d 713c
000000f0: 2a8a 763b 008a 9fbc 99a3 aebc 3de0 5ebd
00000100: a069 143d b01f 5c3d 8e0b 513c c829 6cbc
00000110: 5188 7ebc e7a8 173c a057 993c 0c6c d5bb
00000120: 7628 06bd c22b 9e3b b421 b23c 206d 623d
00000130: e7d5 123d 87e0 7abd 5ba5 d53c 2e57 0bbc
00000140: 7e70 cb3b 483e 33bd ccb9 673d dc2f 57bd
00000150: a133 523d cd89 143c 4750 04bd c40f 5dbd
00000160: 6025 e7bc af0f 423c 6312 2d3d 37f3 2d3d
00000170: fd05 393d ee04 91bb fedd 49bd 4ddc 69bd
00000180: ecc7 f3bc 999d b13c 139a db3c 8920 81bd
00000190: e0bc ca3c a941 4fbd 4329 3abd 6d3e 553d
000001a0: 4e03 05bd e8dd 45bd cab7 7ebd 8fb2 a93c
000001b0: 67fb aabc 1e93 18bd 3abf 313d c12d 083d
000001c0: cfbb 6bbd 1ec1 363d 307c e8bc 2ebb be3c
000001d0: 35bf b43c b2af 30bd 46c1 f03c 0ce5 6abd
000001e0: 5882 1cbd e058 723d ff93 8b3c b916 623d
000001f0: 18c2 20bd 2c10 413d 23f5 bdbc bc63 2abd
00000200: 8da7 8b3c 3d42 133d a897 c13c f279 223d
00000210: 6829 fd3c 0e4d 2c3c 0572 013c c371 1ebc
00000220: 861a 813c 4a61 a93b bdac 073c beac 29bd
00000230: b425 a03c e6fe ae3c 65e4 82bd f800 b73c
00000240: 82ba 70bd da7e 32bb f383 253d 0fc3 2ebd
00000250: c3ca 153a 2774 9cbc d230 773b 75ea f43b
00000260: c11d 1eb9 3197 26bd e062 12bd e38a cfbc
00000270: 78fe 003d d2f3 8d3b 0925 203d 0a1d 62bd
00000280: a2ad 9abc 9c10 fa3b bc0c 40bd 2634 213d
00000290: b274 573c 2cdf 4bbc ab22 48bc 310f 46bd
000002a0: 64a3 cfbc 674b 603c 31cf 6bbd 6993 423c
000002b0: 09fd 87bc a3f4 b83c e0ee f33c 5e32 bbbc
000002c0: f613 213b 78b1 30bd 09a1 2dbd 9fc1 4fbd
000002d0: 76ee 90bb f00c 173d 72ed e5bb 82cb 04bd
000002e0: d046 e9bc ee8b 6a3c 8550 83bc cf58 4dbd
000002f0: b0ea 903c 9f9b 39bd fc0a c9bb 8e88 d43c
00000300: d383 0e3d 33b3 493c cbdb 023b 56f1 dabc
00000310: e34e 023d c5bd 2abd ac75 66bd d881 42bd
00000320: caf2 9f3c f559 1dbd 55f3 173d fefc 38bc
00000330: 4298 11bd 424f 743b d66a 703c 3cca 7e3c
00000340: 106b 1b3d 55a5 febb d8b8 ee3b 846b 79bc
00000350: a248 143d 9727 10bd 18fc a6bc e77e 07bc
00000360: ae14 84bc 4ad5 b2bc b2e2 a9bc 3894 2fbc
00000370: 3361 04bd dc39 893a f358 2eba 2f51 cfbc
00000380: a8a0 00bc 8ebf 1abd 7c50 54bd 4f76 793b
00000390: 114e ea3c 554b 3f3d 587b 7fbd 9c52 07bd
000003a0: fb15 9f3b 0288 dfbc f20c 4c3d 6666 82bc
000003b0: 5bc3 7bbd 560c a0bc 332b 2a3d 4fb0 5fbd
000003c0: cf7e a13c 9c42 26bd f2e8 ba3c db75 9fbc
000003d0: e7a6 c7ba 267c 5fbd ea31 ecbc 2fff 4bbc
000003e0: 48b2 12bc a497 2cbd 09f3 af3c ce6e 1abd
000003f0: 4fb9 85bb 348a 77bd 526a 08bd d275 53bd

conv_layers.3.bias f4 [64]
-0.05107806 -0.040011335 0.053397458 0.044985544 0.077162415 -0.016469106 0.013494444 0.0060771625
0.0241917 0.06647251 0.0062713525 -0.055628546 0.036954567 -0.046981838 -0.024293734 0.006200227
-0.05412724 -0.01845214 -0.0058612875 -0.020296603 -0.0073711993 0.02079586 0.03327458 -0.048281938
0.0074094604 -0.046664365 -0.035830814 0.022815827 0.07808247 -0.011488366 0.05857316 -0.0024327466
-0.0033067407 -0.052175753 -0.050531432 -0.036336217 -0.037083805 0.02584284 0.076936744 0.06711618
0.063035324 0.015226109 0.07112496 0.014253064 -0.032963548 0.045592707 -0.02248062 -0.05596348
-0.03229998 0.020091517 -0.03308149 -0.014512435 0.009028484 -0.02312616 0.019640958 -0.029379236
-0.0065140193 -0.013620111 0.04545152 0.06878537 -0.041380204 0.019880055 0.0027556198 0.013789168
00000000: 3a37 51bd ede2 23bd 4bb7 5a3d c342 383d
00000010: 5407 9e3d 38ea 86bc cd17 5d3c ef22 c73b
00000020: ac2d c63c bd22 883d eb7f cd3b c2da 63bd
00000030: ac5d 173d 0770 40bd a703 c7bc 462b cb3b
00000040: 86b4 5dbd f128 97bc 0b10 c0bb 1045 a6bc
00000050: 1a8a f1bb 145c aa3c ed4a 083d 48c3 45bd
00000060: 0fcb f23b 2223 3fbd 55c3 12bd 42e8 ba3c
00000070: b4e9 9f3d b339 3cbc 69ea 6f3d b76e 1fbb
00000080: e7b5 58bb 3eb6 55bd 0cfa 4ebd 49d5 14bd
00000090: 30e5 17bd 5db4 d33c 0391 9d3d 3574 893d
000000a0: aa18 813d ee76 793c f7a9 913d af85 693c
000000b0: c904 07bd 6bbf 3a3d 4729 b8bc f639 65bd
000000c0: fc4c 04bd f796 a43c 7580 07bd 90c5 6dbc
000000d0: 35ec 133c 1373 bdbc 13e6 a03c b9ac f0bc
000000e0: 8e73 d5bb e326 5fbc 5f2b 3a3d 58df 8c3d
000000f0: 4a7e 29bd 7fdb a23c a197 343b f6eb 613c

fc1.weight f4 [128, 576]
-0.0090624895 0.012029181 0.020559654 -0.03133776 0.024256876 -0.014529447 0.007581696 -0.030968934
0.031616062 -0.0147320125 0.038625248 0.06339444 0.024977399 0.028503872 0.057593405 0.046126135
0.05511025 0.045273844 -0.041812185 -0.032399856 0.004131682 -0.035598315 -0.02940976 -0.02701085
0.017870048 -0.018343924 -0.042270985 0.020183459 0.024001049 -0.00237396 0.034495384 0.008161136
0.03293891 0.008357513 -0.036617454 -0.018418748 -0.0071739415 -0.03295511 -0.019025978 0.02233838
-0.0069005843 0.012754831 -0.029573632 -0.013616834 -0.014776149 0.010368794 -0.0023508172 -0.0024265698
0.029697165 -0.024472957 0.0019208889 0.021731278 0.015946716 0.038818493 -0.01907161 -0.03373045
-0.012880792 0.011499482 0.020751618 -0.017527673 -0.0064068916 -0.022054298 0.039726954 -0.029697757
-0.04078048 0.034201346 -0.019565227 -0.021668745 0.012954549 0.020139096 0.013941461 0.0010583501
0.018662615 -0.017466761 0.027105276 -0.019973842 -0.032253142 0.03222705 0.017874468 -0.027456887
-0.03164788 -0.02931039 0.0064843684 -0.043545444 -0.013019394 0.020509733 0.03103059 0.002500021
-0.039768636 0.015940335 -0.038953666 0.028568225 0.10418942 0.06988576 0.06003631 0.07065265
0.020919282 0.003415119 0.017667763 0.008966193 -0.010037879 -0.011045188 0.014861087 0.011027655
0.02513679 0.03444858 0.036320575 -0.02446416 0.017212726 -0.022514591 -0.0041445014 0.023005353
0.063741095 0.028884558 -0.033542257 0.04096619 -0.0019472896 0.033520665 0.011522854 -0.004555123
-0.02703183 -0.0138146635 -0.029148843 -0.05203027 0.016707366 -0.009777086 -0.0020600345 0.039719444
0.06923298 0.07086669 0.0035056022 0.0048377765 0.022839352 -0.0038857108 -0.014199668 0.09656436
0.096260875 -0.00987599 -0.0155924335 -0.03902787 -0.028895816 -0.05724708 0.0024526222 0.008664771
0.022718921 0.010812725 0.0334526 0.03371079 -0.0085787475 0.0039092703 0.038516264 -0.021980375
0.007552003 -0.013910864 -0.021973087 0.006580879 0.067449205 0.07802376 0.043347564 -0.0065959
-0.014110001 0.04830458 -0.015644781 0.020637516 -0.010483724 0.029923806 0.008495176 -0.03297905
0.0057815043 -0.040754326 -0.005753244 -0.039357573 0.03931303 0.04197097 -0.018444961 0.030525915
-0.021693487 0.009762681 0.010156061 0.02759148 0.019507263 -0.015910797 0.02908099 0.025328863
0.021219734 0.07090514 -0.0076004006 0.01990842 0.015091881 0.00036522956 0.03282073 0.028405745
0.013022563 0.07951326 0.062266197 -0.031821538 -0.017240074 -0.0069854357 -0.019111717 -0.02266528
0.00053838326 -0.023162208 -0.019714551 -0.039965294 -0.042649016 -0.026144048 -0.037176672 0.016121414
0.00482672 -0.007596364 -0.01550517 0.031376086 0.014099648 -0.019767534 -0.022101577 0.0134346485
-0.0011907874 0.036880624 -0.0075653424 0.005003792 0.04735235 -0.0049313875 0.021170683 -0.037265748
0.045425277 0.013641944 0.040651232 0.007959499 0.058587395 0.013827083 0.05302988 0.0335048
0.051072985 0.039506577 -0.050767206 0.013542273 0.07441748 0.0025247023 0.089115076 0.05124128
-0.015036985 0.029622875 0.031381007 0.05615594 0.020772947 0.06774824 0.1127796 0.05948485
0.07318626 0.04365911 -0.007593199 0.058189545 -0.026910411 -0.010656162 -0.053741742 -0.053455748
00000000: d67a 14bc 0b16 453c b86c a83c 065c 00bd
00000010: 5bb6 c63c eb0c 6ebc e06f f83b 90b2 fdbc
00000020: d87f 013d 8a5e 71bc 8235 1e3d f2d4 813d
00000030: 679d cc3c f480 e93c 10e7 6b3d c2ee 3c3d
00000040: 49bb 613d 1171 393d 4143 2bbd b6b5 04bd
00000050: 1063 873b 8acf 11bd bdec f0bc dc45 ddbc
00000060: 3564 923c ff45 96bc 5724 2dbd c857 a53c
00000070: d99d c43c 7194 1bbb 084b 0d3d 49b6 053c
00000080: f3ea 063d f3ed 083c 2ffc 15bd eae2 96bc
00000090: 6213 ebbb f0fb 06bd 5edc 9bbc fafe b63c
000000a0: 4c1e e2bb a4f9 503c 6744 f2bc 2419 5fbc
000000b0: a917 72bc e0e1 293c 2b10 1abb 1607 1fbb
000000c0: 7847 f33c 837b c8bc 56c6 fb3a cb05 b23c
000000d0: b0a2 823c 2400 1f3d 113c 9cbc f128 0abd
000000e0: f509 53bc 5368 3c3c 4cff a93c 3296 8fbc
000000f0: e7f0 d1bb 37ab b4bc bbb8 223d b648 f3bc
00000100: 6f09 27bd b616 0c3d 4147 a0bc a782 b1bc
00000110: 513f 543c bffa a43c ba6a 643c 56b8 8a3a
00000120: 57e2 983c 7416 8fbc e20b de3c 2fa0 a3bc
00000130: df1b 04bd 8300 043d 7a6d 923c 44ed e0bc
00000140: 35a1 01bd 581c f0bc d37a d43b b55c 32bd
00000150: 4c4f 55bc 0704 a83c dd33 fe3c 64d7 233b
00000160: 70e4 22bd 4e95 823c e18d 1fbd e907 ea3c
00000170: 4361 d53d 4420 8f3d a2e8 753d 56b2 903d
00000180: ea5e ab3c 30d0 5f3b fcbb 903c f0e6 123c
00000190: eb75 24bc e0f6 34bc eb7b 733c 56ad 343c
000001a0: abeb cd3c f419 0d3d e2c4 143d 1069 c8bc
000001b0: b401 8d3c 8570 b8bc 99ce 87bb b975 bc3c
000001c0: b18a 823d 4f9f ec3c 9b63 09bd 2acc 273d
000001d0: 323c ffba f74c 093d 5aca 3c3c 2443 95bb
000001e0: db71 ddbc e656 62bc 8ec9 eebc b11d 55bd
000001f0: e3dd 883c 1230 20bc a501 07bb dbb0 223d
00000200: 05ca 8d3d 8e22 913d 3fbe 653b 3686 9e3b
00000210: 9819 bb3c 69a7 7ebb b9a5 68bc 89c3 c53d
00000220: 6c24 c53d e8ce 21bc 6877 7fbc b0db 1fbd
00000230: ebb6 ecbc ea7b 6abd 2cbc 203b aff6 0d3c
00000240: 081d ba3c db27 313c 9805 093d 5314 0a3d
00000250: e08d 0cbc 5619 803b 3bc3 1d3d 3010 b4bc
00000260: cb76 f73b 64ea 63bc e700 b4bc 6aa4 d73b
00000270: cf22 8a3d ecca 9f3d 378d 313d 6b22 d8bb
00000280: a22d 67bc 06db 453d 7c29 80bc 0210 a93c
00000290: edc3 2bbc c522 f53c 5a2f 0b3c 0a15 07bd
000002a0: c672 bd3b 02ee 26bd b585 bcbb 6835 21bd
000002b0: b306 213d c0e9 2b3d e319 97bc 7c11 fa3c
000002c0: 8ab6 b1bc a7f3 1f3c 9b65 263c 8707 e23c
000002d0: b2cd 9f3c 5c57 82bc 423b ee3c 7a7e cf3c
000002e0: 02d5 ad3c b736 913d c80c f9bb fc16 a33c
000002f0: f043 773c 487c bf39 086f 063d 2ab3 e83c
00000300: 975c 553c d9d7 a23d d70a 7f3d 4d57 02bd
00000310: 0e3b 8dbc 15e6 e4bb 2d90 9cbc 8aac b9bc
00000320: 4a22 0d3a acbe bdbc 6980 a1bc a6b2 23bd
00000330: bcb0 2ebd 0b2c d6bc 9146 18bd 0e11 843c
00000340: 7629 9e3b ebea f8bb 6609 7ebc 3684 003d
00000350: 3602 673c 86ef a1bc 5e0e b5bc 001d 5c3c
00000360: 3214 9cba 2310 173d b1e6 f7bb d9f6 a33b
00000370: 8af4 413d 7a97 a1bb 246e ad3c f8a3 18bd
00000380: db0f 3a3d 7682 5f3c e881 263d 8f68 023c
00000390: 56f9 6f3d fd8a 623c dc35 593d 543c 093d
000003a0: e831 513d a6d1 213d 46f1 4fbd 69e0 5d3c
000003b0: 3168 983d 7a75 253b f781 b63d 60e2 513d
000003c0: b05d 76bc acab f23c 5f89 003d c503 663d
000003d0: 072c aa3c 97bf 8a3d fef8 e63d 63a6 733d
000003e0: aee2 953d e5d3 323d 5fd0 f8bb 2958 6e3d
000003f0: 3973 dcbc 2f97 2ebc 4d20 5cbd 6af4 5abd

fc1.bias f4 [128]
-0.024822054 0.041895043 0.0053276494 0.0012201996 0.027280567 0.060221143 -0.01753858 0.034477886
-0.026959404 0.0068929587 -0.020105835 -0.026658617 0.0118261175 -0.021857709 -0.01131883 0.023232466
0.03432491 0.067721106 -0.040955782 0.022150105 -0.037674244 -0.041510765 0.042898342 0.012348272
0.04703384 0.06702444 0.0594388 0.045093216 0.017727075 0.0027046103 -0.0063968464 -0.04303924
-0.03570718 -0.013629478 -0.022979997 -0.03766693 -0.003953491 0.030047387 0.030011404 0.04280846
0.047472425 0.043667216 0.05948836 -0.0026810674 -0.006716544 0.0218145 0.059574146 -0.012703013
0.06471871 -0.030164441 0.0018862643 0.021669988 -0.032052822 -0.037695695 0.005814875 0.056968484
0.05119806 0.005382788 -0.0044562714 0.03267045 0.033407487 -0.029963408 0.039698094 0.020277647
-0.018065842 -0.012243271 -0.005814603 0.0085454965 -0.013332878 -0.030419264 -0.036627263 0.001548145
0.019655269 -0.03367845 -0.027616736 0.043715715 0.012633935 -0.019658085 -0.0171162 -0.002968309
-0.0015309511 -0.031024214 0.018183295 -0.01075524 0.054532975 -0.018721493 0.028849663 -0.0052978406
0.022874065 -0.001972129 0.010240004 -0.033052478 0.044569593 -0.030052332 -0.026395353 -0.002487606
-0.020133175 0.0046867747 0.029549766 0.06764927 0.04229807 -0.041834738 0.016500764 0.012611152
0.020839475 0.064499125 -0.033954367 -0.02712902 -0.038058173 0.018337261 -0.00790896 -0.039265852
-0.056516085 0.008306961 -0.031144002 -0.00087633234 -0.021671914 -0.025480395 0.01161642 -0.027538776
0.023653962 -0.015538856 0.010765389 -0.04619399 0.018058257 0.043376554 0.020695772 -0.021526394
00000000: 9f57 cbbc 239a 2b3d 9093 ae3b 1bef 9f3a
00000010: 7f7b df3c 72aa 763d 11ad 8fbc af38 0d3d
00000020: f8d9 dcbc 54de e13b feb4 a4bc 2c63 dabc
00000030: 55c2 413c f00e b3bc 9d72 39bc 0352 be3c
00000040: 4798 0c3d 5db1 8a3d 40c1 27bd 2374 b53c
00000050: 4f50 1abd 3107 2abd 2cb6 2f3d 6850 4a3c
00000060: 8ea6 403d 1c44 893d 1976 733d aab3 383d
00000070: 5f38 913c d53f 313b a39c d1bb ea49 30bd
00000080: b141 12bd 2d4e 5fbc 8c40 bcbc a448 1abd
00000090: 498c 81bb f025 f63c 7ada f53c ec57 2f3d
000000a0: 7272 423d 65dc 323d 11aa 733d d9b4 2fbb
000000b0: 7416 dcbb 53b4 b23c 0504 743d 4c20 50bc
000000c0: 3e8b 843d 6b1b f7bc 873c f73a 4285 b13c
000000d0: d249 03bd cd66 1abd b58a be3b c957 693d
000000e0: 0fb5 513d 1962 b03b ea05 92bb 73d1 053d
000000f0: 4ad6 083d d275 f5bc 789a 223d 4f1d a63c
00000100: d1fe 93bc 0098 48bc 6d88 bebb 6902 0c3c
00000110: 2572 5abc d231 f9bc 7806 16bd 20eb ca3a
00000120: 1604 a13c 6af2 09bd 7e3c e2bc 400f 333d
00000130: 90fe 4e3c fe09 a1bc 4637 8cbc f687 42bb
00000140: 32aa c8ba 7e26 febc 22f5 943c bf36 30bc
00000150: f85d 5f3d d15d 99bc 2156 ec3c 8299 adbb
00000160: 6462 bb3c d63e 01bb b1c5 273c 0962 07bd
00000170: 9b8e 363d 4f30 f6bc 113b d8bc 1a07 23bb
00000180: 54ee a4bc 8493 993b 5a12 f23c b38b 8a3d
00000190: be40 2d3d e75a 2bbd 9c2c 873c 019f 4e3c
000001a0: 8cb7 aa3c 1e18 843d bc13 0bbd ae3d debc
000001b0: e3e2 1bbd 0638 963c 9594 01bc 3bd5 20bd
000001c0: 697d 67bd eb19 083c b521 ffbc abb9 65ba
000001d0: 4c89 b1bc 43bc d0bc cc52 3e3c 0099 e1bc
000001e0: f4c5 c13c b096 7ebc 5061 303c e935 3dbd
000001f0: e9ee 933c 9dab 313d 2e8a a93c 1f58 b0bc

fc2.weight f4 [1, 128]
0.13640608 -0.12344583 -0.1338658 0.09204648 0.14759137 -0.107789196 -0.047680825 0.08422056
0.14329076 0.14515544 -0.049517855 -0.037054673 0.09918286 -0.0817196 0.12501435 0.1280586
0.0944779 -0.06903439 0.008638804 -0.13806309 -0.116693005 -0.009230503 -0.13794428 -0.0742054
-0.07562874 -0.11573268 -0.10455806 -0.13158306 0.13409454 0.15482001 0.11757443 -0.08049902
0.0482151 -0.052931964 -0.043059416 -0.080834664 0.16173917 -0.09056439 -0.10571081 -0.08930692
-0.08766958 -0.115260854 -0.109390005 -0.072269075 0.08654195 0.12545072 -0.11403766 -0.08367833
-0.11511203 -0.05583853 0.12281424 -0.11218469 0.024423067 -0.065790765 0.12975292 -0.1037569
-0.15149689 -0.03073852 -0.113235496 0.14968495 0.082136534 -0.07906502 -0.13794659 0.15200283
-0.014088021 0.1333523 -0.07266244 -0.14330213 -0.028582634 0.10560961 -0.017463883 0.11930461
0.10994882 0.055081792 0.034283593 -0.11114248 -0.031948354 0.03530263 -0.011832695 -0.062223244
0.15903485 -0.0046192207 0.095680006 -0.050725874 -0.112659864 -0.0036985218 0.09211068 0.119872056
0.09055663 0.16291349 0.09010106 -0.076763175 -0.14717357 0.09248696 0.09485718 0.028978221
-0.05547182 -0.044871338 0.089525685 -0.10034221 -0.08724395 -0.058285426 0.12127459 0.0912393
0.15501718 -0.09230592 -0.07646051 0.13154069 -0.07629439 0.1361616 0.16418162 0.03002325
-0.034590807 0.08256425 -0.024125012 0.015082903 -0.042754687 0.15717347 0.0683965 -0.05508705
0.016592853 0.13805382 -0.010605909 -0.059237637 0.054830372 -0.08099313 -0.12491742 -0.061493564
00000000: 09ae 0b3e 2bd1 fcbd 1e14 09be dd82 bc3d
00000010: 3122 173e 95c0 dcbd f84c 43bd d47b ac3d
00000020: d0ba 123e a1a3 143e 3cd3 4abd a4c6 17bd
00000030: 6220 cb3d 9b5c a7bd c303 003e cb21 033e
00000040: a17d c13d e761 8dbd c589 0d3c 6960 0dbe
00000050: befc eebd 893b 17bc 4441 0dbe 00f9 97bd
00000060: 3ee3 9abd 4105 edbd 8922 d6bd b6bd 06be
00000070: 1450 093e 2389 1e3e ddca f03d acdc a4bd
00000080: 327d 453d 30cf 58bd 125f 30bd a58c a5bd
00000090: f49e 253e d379 b9bd e97e d8bd 8ce6 b6bd
000000a0: 1c8c b3bd e20d ecbd de07 e0bd cf01 94bd
000000b0: e83c b13d 2776 003e 948c e9bd 8b5f abbd
000000c0: dbbf ebbd f1b6 64bd 0886 fb3d 16c1 e5bd
000000d0: e212 c83c 4fbd 86bd f3dd 043e 7f7e d4bd
000000e0: 0022 1bbe 59cf fbbc 03e8 e7bd 0347 193e
000000f0: 3337 a83d d7ec a1bd df41 0dbe a1a6 1b3e
00000100: 71d1 66bc 818d 083e 0cd0 94bd cbbd 12be
00000110: 2126 eabc da49 d83d 6b10 8fbc fa55 f43d
00000120: d92c e13d 729d 613d f46c 0c3d ab9e e3bd
00000130: 47dc 02bd 7e99 103d ecdd 41bc cddd 7ebd
00000140: 08da 223e d55c 97bb e1f3 c33d efc5 4fbd
00000150: 37ba e6bd e662 72bb 86a4 bc3d 7b7f f53d
00000160: c175 b93d cbd2 263e e886 b83d 0336 9dbd
00000170: abb4 16be ce69 bd3d 7b44 c23d bc63 ed3c
00000180: 6b36 63bd 02cb 37bd 3e59 b73d 3780 cdbd
00000190: f5ac b2bd b3bc 6ebd d05e f83d acdb ba3d
000001a0: d3bc 1e3e e30a bdbd 5497 9cbd 9ab2 063e
000001b0: 3c40 9cbd f26d 0b3e 3a1f 283e 52f3 f53c
000001c0: 17af 0dbd 7217 a93d d1a1 c5bc 481e 773c
000001d0: 8a1f 2fbd 15f2 203e 7713 8c3d f5a2 61bd
000001e0: bced 873c fb5d 0d3e 68c4 2dbc 2aa3 72bd
000001f0: d095 603d badf a5bd b4d4 ffbd ade0 7bbd
