models/baselines/convolution_baseline/13_09/model_64_5_2_256_3.pt (torch, 407492 bytes, 7 tensors)

conv_layers.0.weight f4 [64, 20, 5]
00000000: 1a94 d2bd 807e c83b 500c 1e3d 573a e23d
00000010: 1253 e53d 9fce 11bc b94a 463c 94f4 0ebe
00000020: a72d 8c3b 1984 84bc 94e0 43bd 73b4 99bd
00000030: e9cb 69bd 64e5 123d 80ec d13d 0f2b 39be
00000040: 4846 243d 0887 e1bc 1fc7 bf3d eaa3 99bd
00000050: 6a6d b2bd c2f7 29be d4b7 e53c 87a2 2bbd
00000060: cdf7 ebbd 29d9 d7bd d4ee 0abe 8237 763d
00000070: 8466 02be bf80 683c 928f 2c3d d024 12bb
00000080: 2fa2 e03c 9482 03be 5881 3f3c 1974 7d3d
00000090: 6fd0 5d3d 9b7d e23c 113c a83b 9769 fa3c
000000a0: 0a19 5f3d d022 d03d 97ec a33d 688d a3bc
000000b0: 8841 67bd 5645 993d 9ce5 bb3c f497 35bb
000000c0: b3fd 11bd 6a3e 45bd 4552 1fbd c356 4cbe
000000d0: e912 19bd 9cee 3a3d c54d b6bc 1eb6 a9bd
000000e0: 46ca 4abd 0dc2 5dbd 6bc0 99bc 17e7 8ebd
000000f0: 15a2 1cbe 8a19 71bd 7e42 343d 17ca 6d3c
00000100: d6fa 1c39 2d14 20be e504 c23d d0dd 40bd
00000110: 0b7d acbc 5068 1f3c 9600 183d 0ce9 99bc
00000120: e2bc 2bbb adeb d83d 994a cfbc 50e1 0cbe
00000130: 7f93 713d d883 8c3d b09d fdbd ed89 053d
00000140: a070 f0bd 5a37 eebd eec5 31bd 9991 50bd
00000150: b6f6 9a3c 53ca babd cbd2 fbbd bf9a 4cbd
00000160: 2158 19bd d95f 95bd 059a acbd ed96 78bd
00000170: 22e5 27bd 5ce6 0c3b a996 35be 330b 10bc
00000180: 775b 243d 61bd 0a3d 69ce 893d d45d 913d
00000190: 00df 5bbd 32c8 373d e500 de3d fa82 16bd
000001a0: 308b 303d 7aba d2bd c94b 18be 3a15 3abc
000001b0: e685 20be 6c37 3abb a762 bfbd a37f 8ebd
000001c0: 986f 5a3d 0339 f93d 996c 083e d7dd 75bd
000001d0: dbc2 88bd 570e dfbd ba34 df3d 53af edbc
000001e0: 4e17 863d 443c a8bd 1ad8 423d 8cbe e3bd
000001f0: ca57 cc38 56ed 763b 1d57 4fbd 4291 28be
00000200: b628 c7bc 2d5c 92bd 696b 9e3c af14 3e3d
00000210: fc01 843c 6693 d13d b763 b43d cd3e 61bc
00000220: 6d61 babc 1bcc 98bd 3709 8c3d a2ec 2abd
00000230: 67cc d7bd 475e 08be b713 08bd 6e6a 21bd
00000240: f429 acbd 95b3 a63c 667e d43d ac08 803d
00000250: db1c 7c3d 91b9 d939 9cff 973d 5e25 3f3b
00000260: d8e6 30bd ba13 9b3d add7 28bd 22dc a73d
00000270: c2b3 0a3c c935 2fbd daad a73a 6603 a9bc
00000280: d84d b4bc d802 96bc 9242 22bd f985 da3c
00000290: 8f2b 5dbd c731 e13c 0314 ae3d 20cd 0dbe
000002a0: 7948 ef3d 2d62 0cbd 812b 803c 51b5 e93c
000002b0: 2815 cb3d 945b 953d e437 c3bd d02c c53d
000002c0: a3a1 febc b2bf 573c 626c 063d 48e3 d23d
000002d0: 9e24 963d cfe7 ec3d b763 0bbd 86cd d23d
000002e0: 00ea 89bd 0fd8 9abd 34a4 d73c 0fc9 b03d
000002f0: 9b39 d3bd 2ed2 613d 9af6 1bbe eace fb3d
00000300: 6a53 febb 6a68 cdbc 316f 28be ab28 c43d
00000310: 97d0 d2bd 962d 4a3d 8a52 b1bd f43a 84bd
00000320: e1b1 42bd 7a1e 343c 1339 42bc e66b 683d
00000330: adc5 043c 7499 013e 1a92 893d d0e4 633d
00000340: 8c2a ce3c 78e5 eabc 54a0 c3bc 8715 143d
00000350: e011 4fbc fe25 593d 6041 6fbd 0f5a c13c
00000360: abdf 493d 3fa2 81bd 5157 47bd 01bc 74bd
00000370: da5c 8bbd d267 c1bd acc0 bbbd c85d efbd
00000380: 3a98 593d 2343 923b b621 e53d 93f7 89bd
00000390: edf0 23bd 4ef5 f6bd 56d8 953d f10a 67bd
000003a0: 1fb2 823d 7537 a8bc eab6 afbc c791 bc3d
000003b0: db5d 913b d560 c93d 2813 babc 7c85 e73c
000003c0: 3813 ff3d 7e4b 213d 9a30 8dbd 0b05 9d3c
000003d0: c80b b93d 2b6a 073c 5483 443d e115 b4bd
000003e0: 2f37 f6ba 4821 d83c b43a 113e b0d3 9ebd
000003f0: 7020 2f3d 2930 6ebb 2273 12be dc6d fc3c
-0.102821544 0.0061185956 0.03858596 0.11046284 0.11197485 -0.00889936 0.012102776 -0.13960487
0.004277903 -0.01617627 -0.047821596 -0.07505121 -0.05707923 0.035863295 0.10250187 -0.18082832
0.040106088 -0.027530208 0.09364151 -0.07501967 -0.08712275 -0.16598418 0.028041758 -0.041903045
-0.115218736 -0.10539467 -0.13567668 0.06011153 -0.12734419 0.014190852 0.042129107 -0.0022299774
0.027421085 -0.1284278 0.011688553 0.061878297 0.054153856 0.027647784 0.0051341136 0.030567927
0.05446724 0.1016289 0.0800411 -0.019964889 -0.05645898 0.07483928 0.022936635 -0.002770898
-0.035642337 -0.048155226 -0.038896818 -0.19954972 -0.03737155 0.045637712 -0.02225388 -0.08286689
-0.04950931 -0.05414014 -0.01876851 -0.06977671 -0.15296204 -0.058862247 0.044008724 0.014513514
0.00014970763 -0.15632696 0.0947359 -0.047086537 -0.021055719 0.00972946 0.037109934 -0.018787883
-0.0026205112 0.105918266 -0.025304126 -0.13757825 0.058978554 0.06861085 -0.12383592 0.03260224
-0.117402315 -0.11631651 -0.04340165 -0.050920103 0.018916469 -0.091206215 -0.12296065 -0.049952265
-0.037437562 -0.07293672 -0.084278144 -0.06069081 -0.040990002 0.002149961 -0.17733254 -0.008791733
0.04012629 0.033872012 0.06728823 0.070979744 -0.053679466 0.044868656 0.10840014 -0.036746003
0.04310149 -0.10289474 -0.1487266 -0.0113576 -0.15676078 -0.0028414382 -0.09344988 -0.069579385
0.05332908 0.12169077 0.13322677 -0.060026016 -0.06677791 -0.10891407 0.10898729 -0.029014265
0.06547414 -0.0821462 0.04756937 -0.11120328 9.74383e-05 0.0037678084 -0.050620187 -0.16461661
-0.024311405 -0.071464874 0.019338327 0.046406444 0.016114227 0.10233192 0.088080816 -0.013747883
-0.022751534 -0.07460805 0.06837695 -0.041729577 -0.105370335 -0.13317214 -0.033221927 -0.03940814
-0.084064394 0.020349303 0.10375671 0.06251654 0.061550956 0.00041527723 0.074218005 0.002916656
-0.0431889 0.07572122 -0.04122131 0.08196284 0.008465709 -0.042775903 0.0012792901 -0.020631503
-0.022009775 -0.018311903 -0.039614268 0.026675211 -0.05399662 0.027489556 0.08499911 -0.1384778
0.11683745 -0.034273315 0.015645744 0.028528841 0.099161446 0.07292858 -0.09532145 0.09627688
-0.031082934 0.013168262 0.032818206 0.10297257 0.07331203 0.115676515 -0.034030642 0.10293107
-0.06734085 -0.07560741 0.026323415 0.08632099 -0.10313722 0.055132084 -0.1523079 0.12295325
-0.0077614086 -0.025074203 -0.16448666 0.09578069 -0.102936916 0.04935988 -0.08658321 -0.06456557
-0.04753292 0.010993594 -0.011854428 0.056743525 0.00810377 0.12656194 0.0671732 0.055638134
0.025166772 -0.028673872 -0.023880161 0.036153343 -0.012638539 0.053014748 -0.058411956 0.023602514
0.049285572 -0.06329774 -0.048667256 -0.059749607 -0.068048194 -0.0944363 -0.091676086 -0.11687809
0.05312369 0.0044635697 0.111880705 -0.06736674 -0.040024687 -0.12058507 0.073166534 -0.05640692
0.0638163 -0.020534256 -0.021449525 0.09207492 0.0044362373 0.09832922 -0.022714213 0.028261892
0.124548376 0.039378636 -0.06894036 0.019167444 0.0903545 0.0082650585 0.047976807 -0.087932356
-0.0018784757 0.026383057 0.1418255 -0.0775522 0.042755544 -0.0036344624 -0.14301732 0.030814104

conv_layers.0.bias f4 [64]
00000000: 4df5 fb3c 21d5 9abc 2918 ed3b 88f5 913d
00000010: 7a75 8bbc 25af c6bc 488c 243d e745 b33c
00000020: 4ec3 9b3d 2d0e 87bd d18e c53c c11d 9d3d
00000030: 5637 2ebd b05c 7abd 973c 80bd d443 de3d
00000040: c006 25bd 989a 933c cc68 39bd f7c9 85bd
00000050: a626 a0bc 1b5d 5d3c 428d 773d 8cf5 b5bc
00000060: afd3 f7bc ef1f 6b3c 6aee 72bc 917c d83d
00000070: 3ada c33b 83ec ad3c 9c92 6bbc 0e9d de3c
00000080: 294a 9abd 9b33 80bd 63f9 bfbc 0fa2 c23d
00000090: c86d 313d 0662 6bbd 508d e73b adc5 42bd
000000a0: 4e9f e2bc 7bc5 6eba 9d01 ce3d 0c79 563d
000000b0: 8686 d23d 5d53 a1bc d036 63bc a1bc 303d
000000c0: 7a04 0a3d 6beb bcbd 82eb dd3c 613a 293d
000000d0: a7f0 c13b 7f9f 31bd 6168 e3bc 8e10 a23b
000000e0: b7f5 febb e2a4 b73b f95d cd3c d3e4 01bd
000000f0: 1fc2 8abc 45a1 81bd 9aa1 0cbc 40a4 af3b
0.030756617 -0.018900456 0.007235546 0.071269095 -0.01702379 -0.024253437 0.040172845 0.021883918
0.07605611 -0.06594501 0.024115952 0.07671691 -0.04253324 -0.06112355 -0.062615566 0.10852781
-0.04028964 0.018018052 -0.045265958 -0.06532662 -0.019549679 0.013510968 0.06043745 -0.022211812
-0.030252306 0.014350875 -0.01482735 0.10570634 0.0059769424 0.021230942 -0.014378216 0.027174499
-0.07533676 -0.06259843 -0.023434347 0.095035665 0.043317586 -0.05746653 0.0070664063 -0.0475518
-0.027663853 -0.00091084064 0.100589015 0.052361533 0.102795646 -0.019693071 -0.013868049 0.04314864
0.033695675 -0.0922459 0.027089838 0.04131544 0.0059185806 -0.043364998 -0.027759733 0.004945821
-0.0077807563 0.0056043724 0.025069224 -0.031712364 -0.016938267 -0.06329588 -0.008583451 0.0053601563

conv_layers.3.weight f4 [64, 64, 5]
00000000: 0466 41bd a96e 64bb 722f e9bc 7ead 8d3c
00000010: 696c dcbc fd2f 3fbd 39f3 54bd 3307 8cbd
00000020: db1a fbbc cadf 47bd a035 fdbb 56b7 803d
00000030: bac9 cfbb bfe2 12bd 524e 783c 6fbd 693d
00000040: 77cc 713b 266d 843c 9a78 13bd 2144 cb3c
00000050: fb4a 34bd 03a3 90bd 49b9 463d 8123 c53c
00000060: fb5e 0f3d 99ea 3f3c a623 b2bb d282 643b
00000070: 8bb0 a23d af03 283c 197e 55bb 38f2 393d
00000080: 8d68 a4bc 4986 773d 6445 963c fd65 4e3c
00000090: d0d7 0cbd 3deb 833d a77d a1bb de37 453d
000000a0: c627 593d a9c4 953c a14d 8a3d c0c8 b43d
000000b0: 4928 b0bc 5d40 dd3c b952 85bb 79b7 a5bd
000000c0: f259 1cbd f8a3 f0bc f775 9e3d af4b 9bbd
000000d0: 22d3 913c de70 8dbc 6df3 443d f9e6 af3d
000000e0: 665f 953d 2394 9a3d aa17 7a3c cc92 903d
000000f0: 6d9a 8e3d a00c b43c f1b0 c73d 85a0 c33d
00000100: 94fe db3d 45bd 07bd 867b 11bd 2064 a639
00000110: 2d02 6abd 3dcb ffb9 ab20 7dbb 1d87 92bc
00000120: 166e 15bd 78fa 78bd 03b8 883c d0e6 563d
00000130: 44ee d13c 1f38 6b3d 0578 a6bc 416f 5e3d
00000140: 44dd a13d a79a e53b 3283 3b3c 4ee6 583d
00000150: f1a7 793c c4e6 553c b331 50bd 1c34 65bb
00000160: 1fe4 84bb 6c36 983d f55c 853d 5785 8ab9
00000170: 06c8 6c3d a3ea 9a3d 2078 c33d a03f 09be
00000180: 3dc7 14bd 19e7 56bd c36b bb3b 4037 37bd
00000190: 5d79 90bc 7e2e f0b8 ffd5 113d d596 e73c
000001a0: 03b2 d3bc 67b0 dbbc 7f6e 2e3d 7417 6d3b
000001b0: 8a90 413d d340 95bc 628a c1bc 947a 013d
000001c0: bb02 e63c 75b7 92bc e57e 0a3d b3d4 db3a
000001d0: 74cd 88bc 7d08 59bd 0036 0f3c f757 15bd
000001e0: 6c62 f9bb 2f91 30bd a146 14bd 6e25 ca3b
000001f0: 06ce 1fbd 8744 2abc 3aab 8c3c 4885 27bc
00000200: ee1e 03bd 3660 13bd 573e 263c b3f0 2f3d
00000210: 73b4 a0bd eeb6 883d bc57 57bd 9054 46bc
00000220: 4131 fe3a 1d23 2abb caf3 01bc df5d bcbc
00000230: 7f78 32bd d0ad bebd 6b57 f63c 4545 eb3c
00000240: 9019 893d 5965 13bd 9167 e7bc c14a a2bd
00000250: 9b78 623d 657c 89bc e994 fcbc 75be 313d
00000260: cc74 85bd dfbc 94bc 6c30 d73c 9197 513d
00000270: feb3 f63c 4adf d43c 4881 15bc 03cf a93d
00000280: 804c aabc 9ac5 9ebd 08f2 3fbd 4a48 6e3d
00000290: 29c9 383d 4bab c0bc 2ab6 ab3c 4dc4 babd
000002a0: 795c 41bd d70c 99bb d2b0 283d 9635 afbd
000002b0: f142 463d 1e91 77bd 18dd a8bd a5ab 8d3d
000002c0: 8081 ecbc f22e 9abb e11b 9a3d 63dd 3bbc
000002d0: b1d5 f4bc c17b 493d 2623 19bc 1529 9b3d
000002e0: b703 b23b 3fa9 983c b5d6 3cbb 8b7f ecbc
000002f0: 8fe0 533d 0c9d 1ebd f631 6abd ef11 193d
00000300: 4cb0 f53c d7a3 0e3d 2571 733c 93b7 d53d
00000310: 1307 b93d 90d5 e23d ecb4 823d 876c 9a3c
00000320: 8859 15bd 2c4b ae3c 2d57 17bc a637 d93b
00000330: 6521 693c 3ef9 123e 27e2 5b3d b287 babc
00000340: b80b ba3d 243e 843d 9c86 f93c c6ae 763d
00000350: 28fd ac3d af99 f7bb 54c9 4e3c f30a 4dbd
00000360: a7e3 57bd 39fd 87bc fa5c a33c ef52 9f3d
00000370: 33c9 343d cf7a 96bc 5cdd 9f3d 5d76 953d
00000380: e43f 6a3d 0f03 a8bb 13f8 51bb 47d0 3abd
00000390: 9d70 fcbc 89a8 56bd 7130 20bc ab39 e1bb
000003a0: 6bd1 a63c a216 85bd fd93 613d 9677 ee3c
000003b0: 64c7 08bd 3c68 293d 07c2 05bd 92d5 563d
000003c0: c3bb dbbc d793 413d 9a9e 38bc 7e3b 1c3d
000003d0: 6728 88ba aac1 17bc acfd 4fbc f1f6 913c
000003e0: bd5d b13d 1079 133d ebc6 f53c 6226 133c
000003f0: c67e 003c ea3e 853d bf47 c43b ad19 bdbc
-0.04721643 -0.0034855998 -0.028465007 0.017294642 -0.026907163 -0.046676625 -0.051989768 -0.06837311
-0.030652454 -0.048797406 -0.00772734 0.062849686 -0.0063411864 -0.035860773 0.015155392 0.057065424
0.0036895552 0.016165327 -0.036003686 0.02481276 -0.04401682 -0.07062342 0.048516545 0.024064781
0.03500269 0.011713647 -0.0054363785 0.0034868014 0.07943829 0.0102547845 -0.003257638 0.045397013
-0.020069385 0.0604308 0.018343635 0.012597558 -0.034385502 0.064413525 -0.004928309 0.048148982
0.053016447 0.018282251 0.06753088 0.088273525 -0.021503584 0.02700823 -0.004068699 -0.08091635
-0.038171716 -0.029375061 0.07737344 -0.07582795 0.017800871 -0.017265733 0.04808371 0.085889764
0.072935864 0.07547786 0.015264431 0.07059249 0.06963048 0.021978676 0.09750546 0.09552101
0.10741916 -0.033139486 -0.03551819 0.00031736586 -0.05713098 -0.00048788814 -0.0038624208 -0.017886693
-0.03648194 -0.06078574 0.016689306 0.052466214 0.02562631 0.057426568 -0.020320902 0.05430532
0.07903531 0.0070069614 0.011444854 0.05295401 0.015237794 0.013055507 -0.050828647 -0.0034973687
-0.0040555145 0.07432255 0.06511871 -0.00026420757 0.057807945 0.07564285 0.095443964 -0.13403177
-0.03632282 -0.052466486 0.0057196333 -0.044730425 -0.017635996 -0.00011452752 0.035604473 0.028270165
-0.025841719 -0.026817514 0.042585846 0.003617731 0.047256984 -0.018219387 -0.023625556 0.03161104
0.028077474 -0.017909745 0.033812422 0.0016771763 -0.01669953 -0.05298661 0.008740902 -0.036460843
-0.0076106098 -0.043107208 -0.03620017 0.0061690127 -0.03901484 -0.010392315 0.017171491 -0.010224648
-0.03201192 -0.035980426 0.010146699 0.042954158 -0.07846918 0.06675516 -0.052573904 -0.012105122
0.0019393341 -0.002596087 -0.007931659 -0.02299398 -0.043571945 -0.09310496 0.030070981 0.028719554
0.06694329 -0.035985325 -0.028247626 -0.079244144 0.0552908 -0.016782949 -0.030832725 0.043394525
-0.06516418 -0.018156467 0.026268207 0.051169936 0.030115124 0.025985379 -0.009125061 0.082914375
-0.020788431 -0.07752533 -0.04686168 0.05817441 0.045113716 -0.023519179 0.020960886 -0.09119473
-0.04720733 -0.00467072 0.041184254 -0.085551426 0.048403684 -0.06044113 -0.08245295 0.06917504
-0.028870344 -0.0047053033 0.07524849 -0.011466357 -0.029887052 0.049190287 -0.009346759 0.07576195
0.0054325718 0.01863539 -0.0028814499 -0.028869411 0.051727828 -0.03872399 -0.057176553 0.03737062
0.029991291 0.03482422 0.014858519 0.10435405 0.090345524 0.1107589 0.06382164 0.018850578
-0.036462337 0.02127608 -0.009237093 0.0066289483 0.014229153 0.14352891 0.053682473 -0.022769783
0.090842664 0.06457165 0.030459695 0.06022527 0.08446723 -0.0075561623 0.012621243 -0.05005927
-0.05270734 -0.016600238 0.019941796 0.0777949 0.04413719 -0.018369107 0.07805893 0.07297967
0.057189837 -0.0051273177 -0.0032038733 -0.045608785 -0.030815417 -0.05240682 -0.009777174 -0.0068733296
0.02036353 -0.064984575 0.055072773 0.029109757 -0.03339328 0.04135917 -0.032655742 0.05244977
-0.02682293 0.04726013 -0.011268282 0.038142674 -0.0010388017 -0.009262482 -0.012694757 0.017817946
0.08660457 0.036004126 0.030002078 0.008981319 0.007842725 0.065061405 0.005989998 -0.023083532

conv_layers.3.bias f4 [64]
00000000: f411 983d be47 703a 07b4 003d 49fd cabc
00000010: 8d3d 863c 9f2b b2bb fe93 953d 60be 8d3d
00000020: 29ca 1b3d 880f 16bd 9e77 373d 438c 6f3d
00000030: ce2b 9dbc cbcd d03c feaf e8bc 7548 fa3c
00000040: efa8 0abd 101c 4fbc 08f4 e03c b7bd ac3b
00000050: 9192 32bd af38 1dbd b4ec 7e3d ae4a 0bbd
00000060: 5043 7fbc 78d8 feb9 7f41 b8bc c64c 40bc
00000070: f4b7 6cbd 10e1 95bd 1ca6 393d b1af 8a3d
00000080: d9aa 0ebd f5fd 22bd 64b0 773d 8841 c9bb
00000090: 5aac 5ebc 306d 093d 4937 913d 79c2 2e3d
000000a0: 6822 093d 69e6 803d 1ca2 8b3d 9035 34bd
000000b0: f575 93bb b931 4dbd e63e 46bd 4765 d3bc
000000c0: 8940 04bd d1aa 6e3d 924c 5f3c 8121 923c
000000d0: 6419 84bc 9ad2 553d fae6 663d a7ce 6f3d
000000e0: ab5c 54bc 385e aebc 0d4d e8bc 6e18 c0bc
000000f0: 8948 cfbc 1977 89ba 9adf 273c d028 c23b
0.07425299 0.0009165964 0.031421687 -0.024778979 0.016386772 -0.005437329 0.07303618 0.06921077
0.03803459 -0.036635906 0.04479181 0.058483373 -0.019185927 0.025488755 -0.028404232 0.030552128
-0.033852514 -0.012640968 0.027460113 0.005271639 -0.043596808 -0.038384136 0.062237456 -0.034006767
-0.015580013 -0.00048607937 -0.022492168 -0.011737054 -0.05779262 -0.07318318 0.04532443 0.06771792
-0.0348309 -0.039792974 0.060470954 -0.006141845 -0.0135908965 0.033551395 0.07090623 0.042665932
0.033480078 0.06293947 0.06818029 -0.043996394 -0.0045001456 -0.050096247 -0.04839983 -0.025805129
-0.032288108 0.058268372 0.013629096 0.017838242 -0.016125388 0.0522028 0.05637262 0.05854669
-0.012961547 -0.021285161 -0.028357053 -0.023449149 -0.025303142 -0.0010487764 0.010246182 0.0059252754

fc1.weight f4 [128, 576]
00000000: 8834 d03b f373 09bd 30fc b6bc 88fb c03c
00000010: 2957 833c d13f 56bd 9c1f 4abc b4a8 1cbc
00000020: e29e 0dbd 126e aebd 47cf 87bd 9754 f93b
00000030: 38fb 933b e131 8bbd 35fd b8bc e31d 29bd
00000040: 4bf2 ba3c 6e05 2c3d 2ea5 a33d 23e5 353d
00000050: 2fe4 733d f66a 6c3d 6d0b d83b d9e2 c23b
00000060: ceec 103d bbb3 2a3d 5094 5ebc dcf1 753d
00000070: 9133 503d b886 a13c 03d7 883d 5c59 05bc
00000080: 144c fd3c c7e2 00bd a87c f1bb 8a6e 773d
00000090: 4c13 6d3d 3665 313d 9710 fa3c 2283 31bc
000000a0: 1634 023d 72a7 0e3d 9d16 a9bc a0c3 a83c
000000b0: f7dc 18bd 8fbf 693d 3000 8b3d 32d1 6f3c
000000c0: 94ff 463d f169 153d a299 143c d039 853b
000000d0: d7af dd3c 03bd 53bc d97d 45bd 1006 b1bc
000000e0: f834 15bd 75b7 65bc b442 6ebd b71f 9ebc
000000f0: fccc 133a c1d9 07bc 0f10 ac3c 2a61 aa3d
00000100: facb 523d 80c4 0b3d cb58 a6bc 4b5b 35bc
00000110: 722b ea3b f6df b13c 8d08 893b fe54 0bbd
00000120: 46fa 983d 93b2 8b3d 28df 4d3d a204 193d
00000130: 058b 173d a2cf 243d bffb 86bc e3a1 df3c
00000140: fe90 d9bc 0246 3e3e da90 f6bb 684a f03d
00000150: de2b 203e 5ae1 793d eeb1 073c 4d67 9abd
00000160: 280a 0cbc 71ac 7b3d 515d a0bd 64d4 1c3d
00000170: 147f 143b 8216 12bc 668e 43bd 1997 d5bc
00000180: 7ed2 01bd 0ae2 2d3d f02a 363d da2d 4abd
00000190: adac f4bc 0e64 e7bb 4fb1 abbb 6269 9dbc
000001a0: a794 14bd bc31 9f3c 4f7e 7ebc 98f2 dc3c
000001b0: fb63 903d 3bf1 a13d 3d60 4c3d aabc 6b3d
000001c0: b4c2 893d dab4 243c 2cd8 833b c746 ef3b
000001d0: b8b4 9abb d0cb 6d3d 276a 923d 2f10 e3bc
000001e0: 7fe7 bd3b dc45 aabc 448f 0cbd 40f7 a03c
000001f0: 2179 5fbd bc13 543c 9df9 2a3d cbd8 8b3d
00000200: cbc5 a03d ee87 6d3d 7f4d ad3c cecf a23c
00000210: 8fb8 98bc 10eb d03c e978 203d 3266 3abd
00000220: 41d6 abbc 4908 77bd 718e 6e3b 5a41 b5bc
00000230: 42c0 2cbd a162 6bbc 4768 aa3b 624b e63c
00000240: 5f4f 8d3d f5fb 913d 5e8f 5b3d 2e6e 48bc
00000250: 76cb 993c 2f0e a5bc 4dac 19bd 97fb ecbb
00000260: ea51 1abc 0f0a 903d 9443 133b f102 be3d
00000270: 86e0 783d b9d6 463d 1cf7 7c3d a526 1a3d
00000280: e19b 1ebc dc7e 843d ee7b 363d 7f8e c63c
00000290: d126 87bb f287 c03c 67df 203d 9fe5 a63c
000002a0: f1fd 9e3b 40e0 e23c 0fbd 0abd ad58 ca3d
000002b0: 2f24 0bbc 2032 e13c 06ab b03c 4cb9 0d3d
000002c0: 9d7e 433d b845 1fbc f6ef f03b 87da 2c3c
000002d0: 7e8e 4f3d 7c5e 833d 82e7 ff3b b924 0c3d
000002e0: 0fe1 1f3a 4937 423d 1f68 343c d03c ddbc
000002f0: a367 2a3d 13c0 bc3d cc8f 043d 367c e53c
00000300: d6c5 a4bc 6392 813b 58b0 2d3d 80ff 103d
00000310: 4781 2bbd c6df e5bb ee8e c8bd 48cf 493b
00000320: 75d7 a3bc 3d64 1bbb 5454 4abd 5f2e 08bd
00000330: 0923 e6bc 9c69 c0bc 7363 ef3c 1aa0 ff3d
00000340: edde 883b 7153 783b 6d7b 7b3d f204 153d
00000350: 584e ab3c 39db c9bc b43c 513c 9c4d 193c
00000360: e1c5 81bc 3044 bcbc 8e15 e83c 5461 4cbb
00000370: 2b54 463c d6cb bfbc 49c2 50bc 16be d03b
00000380: 0e72 b2bc 8720 90bd 599f 1e3e 1f32 fd3c
00000390: 7da1 1ebd aa1c 733b e1dc 493b 61e5 b3bc
000003a0: 8ac8 9bbd efdd 683d f286 873d a94d 5a3c
000003b0: 2b19 793d e218 013d 4af8 943c 5d52 473d
000003c0: 7869 6fbc b141 7e3c 6bc7 2c3d d736 fd3d
000003d0: b539 213d 24ea 163d a4c9 2c3d 53dc 403d
000003e0: 0622 2f3c 0a59 de3c 0e83 3fbd e517 193d
000003f0: ee75 2dbd 5a2a 3a3c 88c9 10bd 1b3e 78bc
0.0063539185 -0.033557843 -0.02233705 0.02355744 0.016032772 -0.052306954 -0.012336638 -0.009561706
-0.03457535 -0.08517088 -0.06631332 0.007608961 0.0045160316 -0.06796623 -0.022581676 -0.041288268
0.022820612 0.041997366 0.0799049 0.044407975 0.059543785 0.057719193 0.006593159 0.0059474525
0.035382085 0.04167531 -0.013585165 0.06004511 0.050830428 0.01971756 0.06681635 -0.008138981
0.030920066 -0.03146627 -0.0073695965 0.060408153 0.05787973 0.043309413 0.030525489 -0.010834487
0.031787954 0.034827657 -0.020640666 0.020601094 -0.037320103 0.05706745 0.06787145 0.014637278
0.048583582 0.036477987 0.009069832 0.0040657297 0.027061386 -0.012923482 -0.04821572 -0.021609336
-0.036427468 -0.01402079 -0.05816908 -0.019302232 0.000563815 -0.008291663 0.021003751 0.08319314
0.05146406 0.034122944 -0.020306012 -0.011069129 0.0071462924 0.021713238 0.0041819275 -0.0340166
0.07469611 0.0682117 0.050261647 0.037357934 0.036997814 0.040237077 -0.016477464 0.027298873
-0.026558395 0.18581393 -0.007524592 0.11732942 0.15641734 0.061005928 0.008282168 -0.07539234
-0.008547343 0.06144375 -0.07830299 0.03828849 0.0022658752 -0.008916499 -0.047743224 -0.026073026
-0.03169488 0.042451896 0.044474542 -0.049360134 -0.029867494 -0.007061488 -0.0052396427 -0.01921529
-0.03627458 0.019432895 -0.015533044 0.026971146 0.0705032 0.07907339 0.049896467 0.05755297
0.0672659 0.010052884 0.0040235724 0.0073021385 -0.0047212504 0.0580557 0.07149153 -0.027717678
0.0057954188 -0.020785265 -0.034316316 0.019649148 -0.054558877 0.012944158 0.041741956 0.06828459
0.07850226 0.05799096 0.021155117 0.01987448 -0.018642692 0.025502712 0.03917781 -0.045507617
-0.020976188 -0.060310636 0.003640082 -0.022125889 -0.04217554 -0.014366777 0.005200419 0.028112117
0.068999045 0.07128135 0.053603522 -0.0122333 0.018773776 -0.020148365 -0.037517834 -0.0072321403
-0.009418944 0.070331685 0.00224707 0.09277905 0.060760997 0.04854462 0.0617591 0.03763451
-0.009680719 0.06469509 0.044551782 0.02423787 -0.0041245003 0.023502324 0.039275553 0.020373164
0.0048520495 0.027694821 -0.033871707 0.09880195 -0.008492514 0.027489722 0.021565925 0.03460054
0.04772817 -0.009721212 0.0073528243 0.010550148 0.050673 0.06414506 0.0078095803 0.03421471
0.0006098905 0.047416005 0.0110111525 -0.027006537 0.041602742 0.09216323 0.032363698 0.02801333
-0.020113867 0.0039542182 0.042404503 0.035399914 -0.041871335 -0.0070152013 -0.09792887 0.0030793715
-0.020000199 -0.002371087 -0.049396828 -0.033247348 -0.028092878 -0.023487858 0.029222226 0.12481709
0.0041769654 0.0037891532 0.061397005 0.03638167 0.02091138 -0.024640666 0.01277082 0.009356882
-0.015841426 -0.022981733 0.02833059 -0.0031185942 0.012105028 -0.023412626 -0.012741634 0.0063703163
-0.021782901 -0.07037454 0.15490474 0.030907689 -0.038728226 0.0037095943 0.003080182 -0.021959962
-0.07606609 0.056852277 0.06617536 0.01332418 0.060815018 0.03151787 0.0181848 0.048662532
-0.014612548 0.015518592 0.042182367 0.123639755 0.039361674 0.036844388 0.042184487 0.047085118
0.010689264 0.027142067 -0.046755843 0.037376303 -0.042348795 0.011362636 -0.035348445 -0.015151526

fc1.bias f4 [128]
00000000: 393e 933b 4639 a03c 2b90 e6bc 21c5 063d
00000010: d4a4 b4bc 4323 043d 9d3a 2a3c 1161 f3bb
00000020: 977f f6bb 6a74 9fbc f5ff 113d 9ffc b63c
00000030: 8aa9 223d e1e4 183d 5b3e b2bb 7c86 7b3c
00000040: 5082 083c 2780 babc 7f28 483d 86ef b23a
00000050: 0d28 d6bc 8cfe 073d 5f26 893c e5be 733d
00000060: 7511 873d ae78 7fbc 2bb1 21bc dc57 bbbc
00000070: 20e2 1c3c 7bfa 10bd 34f9 20bd 67f7 01bd
00000080: 0b7d 45bd d350 c53c 6feb eebc 1d3b 833d
00000090: 41f5 8a3d 9114 2f3c c23e c53c 9081 9b3c
000000a0: 2ad5 3ebd 31f8 9fbc da31 00bc 1372 033d
000000b0: 20e4 c5bb 54e9 fc3c a6b5 f03c 2441 0ebd
000000c0: f5d4 803d 5453 0b3d 3b9e 0ebd 54c6 c5bc
000000d0: 79c5 223d 1d65 2bbd 8adf 44bc 6d50 ec3c
000000e0: 29fc 4a3c 70d0 c13c 02e9 2fbb 45a3 febc
000000f0: b011 3fbd bf18 8c3d ec3c 1b3d 7c93 d2bc
00000100: 4bc3 f63c 0f9e b83c d893 f23c 1f88 ce3c
00000110: 9a02 17bd bbb7 16bd c8f0 d63c f589 3e3d
00000120: ef08 05bd 538b 8c3d 88d9 123d af92 1dbc
00000130: 2651 c3bc 3682 353d ed77 6f3d 1750 953c
00000140: ffa3 cfbc ff93 d23c a6ea 713b 7e80 13bc
00000150: 4e43 143d 88aa b6bc e430 54bb 1592 273d
00000160: 5230 4e3b 0b60 603d b940 29bd d64f 10bd
00000170: 230b 84bb 1fff 01bd 7019 fabc 0ef1 e4bc
00000180: 2654 fb3c 8ea1 c33c b62f 9cbc afee 2dbd
00000190: 6902 163b 60f5 fc3b 3080 273d a4e9 16bd
000001a0: 4d95 7bbc d937 5a3d 85f4 253d 68b6 193d
000001b0: 67b4 903a 1ca9 e9bc 4181 ec3c 2f55 933c
000001c0: 2382 cfbc f06b 893d 8b6d aabc f5d4 70bc
000001d0: 7521 b73c cc7a 37bd ab22 5abc b6f8 cdbc
000001e0: 0560 cb3c 95fc 31bd d607 c83c 9159 20bd
000001f0: 8849 91bc 4e75 2f3d 2fad 713d cc01 91bc
0.0044935015 0.01955856 -0.028144917 0.03290284 -0.022051252 0.03226019 0.010389951 -0.0074273427
-0.007522534 -0.01946469 0.03564449 0.022337256 0.039712466 0.03732765 -0.0054395623 0.015351888
0.00833185 -0.022766186 0.048866745 0.0013651706 -0.026142145 0.03320174 0.01674193 0.059508223
0.065951265 -0.015592737 -0.0098689 -0.022869043 0.009575397 -0.035395127 -0.03930016 -0.031730082
-0.048214953 0.024086392 -0.029164998 0.06407759 0.0678506 0.010686056 0.024077777 0.018982679
-0.046590008 -0.019527527 -0.007824386 0.03209121 -0.0060391575 0.030872978 0.029383492 -0.03473009
0.06290618 0.034015015 -0.03481887 -0.024142422 0.039739106 -0.041844476 -0.0120161865 0.028846944
0.012389221 0.023658961 -0.0026841764 -0.031083712 -0.046647727 0.068406574 0.037899897 -0.025705092
0.03012242 0.022536306 0.029611513 0.025211392 -0.036867715 -0.036796313 0.02623786 0.046518285
-0.032479223 0.068625115 0.035851985 -0.009617492 -0.023842406 0.044313632 0.05846398 0.018226666
-0.025346754 0.025705336 0.0036913543 -0.009002803 0.036197 -0.022298113 -0.0032377774 0.0409108
0.0031461907 0.054779094 -0.04132149 -0.035232387 -0.004029648 -0.031737443 -0.030529708 -0.027946975
0.030679774 0.023880746 -0.01906572 -0.042463955 0.002288962 0.0077196807 0.040893734 -0.03684391
-0.01535542 0.053275917 0.040516395 0.03752747 0.0011040092 -0.02852302 0.028870227 0.017984955
-0.025330609 0.067100406 -0.020804187 -0.01469921 0.02235482 -0.044794843 -0.01331393 -0.025143009
0.02482606 -0.04345377 0.024417799 -0.039147917 -0.017735258 0.04283648 0.05900305 -0.017701052

fc2.weight f4 [1, 128]
00000000: 73ac 063e 9155 d53d 4454 3abd 45b0 a8bd
00000010: 3627 0f3d 62ba d33d 026e 233e 3bd9 293e
00000020: e8cb d43d 3095 a6bd 2691 433b e23c dc3d
00000030: 51f5 95bd f983 b4bd f706 283e 6efe 8bbd
00000040: c4ce bc3d e262 b73d 0e02 d3bd 21d2 2a3e
00000050: 30ce 30be eec2 023e 6da6 213e 51e1 e0bd
00000060: f76e 01be 5b7b a9bd f650 37bb b49b 123e
00000070: e1e7 93bd 6887 37bd 3452 8fbc a300 1a3e
00000080: 7c8a 8fbd a475 f1bd a91f a13d 95d9 04be
00000090: 820f 0abe 7148 1d3e ac08 d2bd cedd 893d
000000a0: 7722 97bd e2e7 813d bcdc 173e 9217 0d3e
000000b0: 8deb 0c3d f5d3 e3bd ef64 b23d 9c20 233c
000000c0: 15e3 8bbd ac16 103e 19c9 d0bc c66a 8fbd
000000d0: bc50 17be 8c80 99bc 0bcf 103e 993f 0f3e
000000e0: 7408 2a3e 268a d0bd 8217 f5bd 5098 253e
000000f0: 8c8e 4b3d 3aec b2bd a93e 1cbe 32ec 43bd
00000100: 3e30 da3d 3264 113e b287 0a3e 1c3d 0abe
00000110: 96db b63d cfa9 18bd e85e acbd 3067 d9bd
00000120: f826 cd3c cc71 11be bf65 05be fcc8 a5bc
00000130: 799d c43d 0ea6 a5bd 0ac2 e7bd 8c6b b43d
00000140: 29c4 e63d 9c66 f43d 3995 863d 0aa9 003e
00000150: a505 1dbe c2df c13c cb4b e53c a935 c3bd
00000160: 6758 de3d 02e6 08be 115e 163e 251d 283e
00000170: ee9a 1a3e 65fc 283e 62cf f8bb b8a9 9e3c
00000180: 3bdd 163e d7ee 103e 635f c23d fbdb 313a
00000190: b9f5 d53d 58df 05bb 1191 0abe d539 993d
000001a0: 043e 33be f56f f0bd 2491 dfbd 1383 01be
000001b0: f728 143e d939 dd3c 258e 783d 85ff c73d
000001c0: 2f19 fc3d 3bf7 c0bd 23dd a5bd a848 0e3e
000001d0: 844a 17be 8f41 5c3c db67 35bc a748 8f3d
000001e0: bdb7 aebd a4fa ed39 ff75 233e 4ea4 293c
000001f0: 33a4 18bd 9509 c0bd ba3b 0cbe a084 55bc
0.13151722 0.10416711 -0.04549052 -0.08236746 0.034949504 0.10338284 0.15959933 0.16586773
0.103904545 -0.08133924 0.0029841154 0.107538 -0.07322181 -0.08814234 0.16408907 -0.06835638
0.09219125 0.08954407 -0.10303126 0.1668172 -0.17266154 0.12769672 0.15786143 -0.10980476
-0.12639986 -0.08275481 -0.002797184 0.14317209 -0.07221962 -0.044806868 -0.017495252 0.15039305
-0.07008836 -0.11790016 0.07867367 -0.12973626 -0.13482478 0.15359665 -0.1025556 0.06731759
-0.073796205 0.06343056 0.14830297 0.13778523 0.034404326 -0.11124412 0.08710658 0.009956505
-0.06830422 0.14071149 -0.025486516 -0.07002787 -0.14776891 -0.018738054 0.1414148 0.13989104
0.16604787 -0.101826 -0.119673744 0.16171384 0.04969649 -0.08736463 -0.15258278 -0.047832675
0.10653733 0.14198378 0.13528326 -0.13499874 0.089286014 -0.037271317 -0.084165394 -0.106153846
0.025042996 -0.14203566 -0.13027094 -0.020237438 0.09600348 -0.08088313 -0.11316307 0.088095754
0.11267883 0.11933634 0.06571431 0.12564483 -0.15334184 0.023666266 0.027990242 -0.09531719
0.10856705 -0.13368991 0.14684321 0.16417368 0.15098163 0.16502531 -0.0075930813 0.019368038
0.1473283 0.1415361 0.0949085 0.0006784794 0.104472585 -0.0020427313 -0.13531901 0.07481734
-0.17504126 -0.11740104 -0.10916355 -0.12647657 0.14468752 0.027005123 0.060682435 0.09765533
0.12309491 -0.094221555 -0.08098819 0.13894904 -0.14774519 0.013443365 -0.011072124 0.06996279
-0.08531139 0.00045390904 0.1596298 0.010354115 -0.037265968 -0.093768276 -0.13694659 -0.013032109
